==========================================================================================
Layer (type:depth-idx)                   Output Shape              Param #
==========================================================================================
├─Sequential: 1-1                        [-1, 16, 26, 26]          --
|    └─Conv2d: 2-1                       [-1, 16, 26, 26]          160
|    └─ReLU: 2-2                         [-1, 16, 26, 26]          --
├─Sequential: 1-2                        [-1, 16, 12, 12]          --
|    └─Conv2d: 2-3                       [-1, 16, 24, 24]          2,320
|    └─ReLU: 2-4                         [-1, 16, 24, 24]          --
|    └─MaxPool2d: 2-5                    [-1, 16, 12, 12]          --
├─Sequential: 1-3                        [-1, 64, 10, 10]          --
|    └─Conv2d: 2-6                       [-1, 64, 10, 10]          9,280
|    └─ReLU: 2-7                         [-1, 64, 10, 10]          --
├─Sequential: 1-4                        [-1, 64, 8, 8]            --
|    └─Conv2d: 2-8                       [-1, 64, 8, 8]            36,928
|    └─ReLU: 2-9                         [-1, 64, 8, 8]            --
├─Sequential: 1-5                        [-1, 64, 4, 4]            --
|    └─Conv2d: 2-10                      [-1, 64, 8, 8]            36,928
|    └─ReLU: 2-11                        [-1, 64, 8, 8]            --
|    └─MaxPool2d: 2-12                   [-1, 64, 4, 4]            --
├─Sequential: 1-6                        [-1, 2]                   --
|    └─Linear: 2-13                      [-1, 128]                 131,200
|    └─ReLU: 2-14                        [-1, 128]                 --
|    └─Linear: 2-15                      [-1, 128]                 16,512
|    └─ReLU: 2-16                        [-1, 128]                 --
|    └─Linear: 2-17                      [-1, 2]                   258
==========================================================================================
Total params: 233,586
Trainable params: 233,586
Non-trainable params: 0
Total mult-adds (M): 7.45
==========================================================================================
Input size (MB): 0.00
Forward/backward pass size (MB): 0.27
Params size (MB): 0.89
Estimated Total Size (MB): 1.16
========================================================================================== 
==========================================================================================
Layer (type:depth-idx)                   Output Shape              Param #
==========================================================================================
├─Sequential: 1-1                        [-1, 16, 26, 26]          --
|    └─Conv2d: 2-1                       [-1, 16, 26, 26]          160
|    └─ReLU: 2-2                         [-1, 16, 26, 26]          --
├─Sequential: 1-2                        [-1, 16, 12, 12]          --
|    └─Conv2d: 2-3                       [-1, 16, 24, 24]          2,320
|    └─ReLU: 2-4                         [-1, 16, 24, 24]          --
|    └─MaxPool2d: 2-5                    [-1, 16, 12, 12]          --
├─Sequential: 1-3                        [-1, 64, 10, 10]          --
|    └─Conv2d: 2-6                       [-1, 64, 10, 10]          9,280
|    └─ReLU: 2-7                         [-1, 64, 10, 10]          --
├─Sequential: 1-4                        [-1, 64, 8, 8]            --
|    └─Conv2d: 2-8                       [-1, 64, 8, 8]            36,928
|    └─ReLU: 2-9                         [-1, 64, 8, 8]            --
├─Sequential: 1-5                        [-1, 64, 4, 4]            --
|    └─Conv2d: 2-10                      [-1, 64, 8, 8]            36,928
|    └─ReLU: 2-11                        [-1, 64, 8, 8]            --
|    └─MaxPool2d: 2-12                   [-1, 64, 4, 4]            --
├─Sequential: 1-6                        [-1, 2]                   --
|    └─Linear: 2-13                      [-1, 128]                 131,200
|    └─ReLU: 2-14                        [-1, 128]                 --
|    └─Linear: 2-15                      [-1, 128]                 16,512
|    └─ReLU: 2-16                        [-1, 128]                 --
|    └─Linear: 2-17                      [-1, 2]                   258
==========================================================================================
Total params: 233,586
Trainable params: 233,586
Non-trainable params: 0
Total mult-adds (M): 7.45
==========================================================================================
Input size (MB): 0.00
Forward/backward pass size (MB): 0.27
Params size (MB): 0.89
Estimated Total Size (MB): 1.16
========================================================================================== 
==========================================================================================
Layer (type:depth-idx)                   Output Shape              Param #
==========================================================================================
├─Sequential: 1-1                        [-1, 16, 26, 26]          --
|    └─Conv2d: 2-1                       [-1, 16, 26, 26]          160
|    └─ReLU: 2-2                         [-1, 16, 26, 26]          --
├─Sequential: 1-2                        [-1, 16, 12, 12]          --
|    └─Conv2d: 2-3                       [-1, 16, 24, 24]          2,320
|    └─ReLU: 2-4                         [-1, 16, 24, 24]          --
|    └─MaxPool2d: 2-5                    [-1, 16, 12, 12]          --
├─Sequential: 1-3                        [-1, 64, 10, 10]          --
|    └─Conv2d: 2-6                       [-1, 64, 10, 10]          9,280
|    └─ReLU: 2-7                         [-1, 64, 10, 10]          --
├─Sequential: 1-4                        [-1, 64, 8, 8]            --
|    └─Conv2d: 2-8                       [-1, 64, 8, 8]            36,928
|    └─ReLU: 2-9                         [-1, 64, 8, 8]            --
├─Sequential: 1-5                        [-1, 64, 4, 4]            --
|    └─Conv2d: 2-10                      [-1, 64, 8, 8]            36,928
|    └─ReLU: 2-11                        [-1, 64, 8, 8]            --
|    └─MaxPool2d: 2-12                   [-1, 64, 4, 4]            --
├─Sequential: 1-6                        [-1, 2]                   --
|    └─Linear: 2-13                      [-1, 128]                 131,200
|    └─ReLU: 2-14                        [-1, 128]                 --
|    └─Linear: 2-15                      [-1, 128]                 16,512
|    └─ReLU: 2-16                        [-1, 128]                 --
|    └─Linear: 2-17                      [-1, 2]                   258
==========================================================================================
Total params: 233,586
Trainable params: 233,586
Non-trainable params: 0
Total mult-adds (M): 7.45
==========================================================================================
Input size (MB): 0.00
Forward/backward pass size (MB): 0.27
Params size (MB): 0.89
Estimated Total Size (MB): 1.16
========================================================================================== 
==========================================================================================
Layer (type:depth-idx)                   Output Shape              Param #
==========================================================================================
├─Sequential: 1-1                        [-1, 16, 26, 26]          --
|    └─Conv2d: 2-1                       [-1, 16, 26, 26]          160
|    └─ReLU: 2-2                         [-1, 16, 26, 26]          --
├─Sequential: 1-2                        [-1, 16, 12, 12]          --
|    └─Conv2d: 2-3                       [-1, 16, 24, 24]          2,320
|    └─ReLU: 2-4                         [-1, 16, 24, 24]          --
|    └─MaxPool2d: 2-5                    [-1, 16, 12, 12]          --
├─Sequential: 1-3                        [-1, 64, 10, 10]          --
|    └─Conv2d: 2-6                       [-1, 64, 10, 10]          9,280
|    └─ReLU: 2-7                         [-1, 64, 10, 10]          --
├─Sequential: 1-4                        [-1, 64, 8, 8]            --
|    └─Conv2d: 2-8                       [-1, 64, 8, 8]            36,928
|    └─ReLU: 2-9                         [-1, 64, 8, 8]            --
├─Sequential: 1-5                        [-1, 64, 4, 4]            --
|    └─Conv2d: 2-10                      [-1, 64, 8, 8]            36,928
|    └─ReLU: 2-11                        [-1, 64, 8, 8]            --
|    └─MaxPool2d: 2-12                   [-1, 64, 4, 4]            --
├─Sequential: 1-6                        [-1, 2]                   --
|    └─Linear: 2-13                      [-1, 128]                 131,200
|    └─ReLU: 2-14                        [-1, 128]                 --
|    └─Linear: 2-15                      [-1, 128]                 16,512
|    └─ReLU: 2-16                        [-1, 128]                 --
|    └─Linear: 2-17                      [-1, 2]                   258
==========================================================================================
Total params: 233,586
Trainable params: 233,586
Non-trainable params: 0
Total mult-adds (M): 7.45
==========================================================================================
Input size (MB): 0.00
Forward/backward pass size (MB): 0.27
Params size (MB): 0.89
Estimated Total Size (MB): 1.16
========================================================================================== 
==========================================================================================
Layer (type:depth-idx)                   Output Shape              Param #
==========================================================================================
├─Sequential: 1-1                        [-1, 16, 26, 26]          --
|    └─Conv2d: 2-1                       [-1, 16, 26, 26]          160
|    └─ReLU: 2-2                         [-1, 16, 26, 26]          --
├─Sequential: 1-2                        [-1, 16, 12, 12]          --
|    └─Conv2d: 2-3                       [-1, 16, 24, 24]          2,320
|    └─ReLU: 2-4                         [-1, 16, 24, 24]          --
|    └─MaxPool2d: 2-5                    [-1, 16, 12, 12]          --
├─Sequential: 1-3                        [-1, 64, 10, 10]          --
|    └─Conv2d: 2-6                       [-1, 64, 10, 10]          9,280
|    └─ReLU: 2-7                         [-1, 64, 10, 10]          --
├─Sequential: 1-4                        [-1, 64, 8, 8]            --
|    └─Conv2d: 2-8                       [-1, 64, 8, 8]            36,928
|    └─ReLU: 2-9                         [-1, 64, 8, 8]            --
├─Sequential: 1-5                        [-1, 64, 4, 4]            --
|    └─Conv2d: 2-10                      [-1, 64, 8, 8]            36,928
|    └─ReLU: 2-11                        [-1, 64, 8, 8]            --
|    └─MaxPool2d: 2-12                   [-1, 64, 4, 4]            --
├─Sequential: 1-6                        [-1, 2]                   --
|    └─Linear: 2-13                      [-1, 128]                 131,200
|    └─ReLU: 2-14                        [-1, 128]                 --
|    └─Linear: 2-15                      [-1, 128]                 16,512
|    └─ReLU: 2-16                        [-1, 128]                 --
|    └─Linear: 2-17                      [-1, 2]                   258
==========================================================================================
Total params: 233,586
Trainable params: 233,586
Non-trainable params: 0
Total mult-adds (M): 7.45
==========================================================================================
Input size (MB): 0.00
Forward/backward pass size (MB): 0.27
Params size (MB): 0.89
Estimated Total Size (MB): 1.16
========================================================================================== 
==========================================================================================
Layer (type:depth-idx)                   Output Shape              Param #
==========================================================================================
├─Sequential: 1-1                        [-1, 16, 26, 26]          --
|    └─Conv2d: 2-1                       [-1, 16, 26, 26]          160
|    └─ReLU: 2-2                         [-1, 16, 26, 26]          --
├─Sequential: 1-2                        [-1, 16, 12, 12]          --
|    └─Conv2d: 2-3                       [-1, 16, 24, 24]          2,320
|    └─ReLU: 2-4                         [-1, 16, 24, 24]          --
|    └─MaxPool2d: 2-5                    [-1, 16, 12, 12]          --
├─Sequential: 1-3                        [-1, 64, 10, 10]          --
|    └─Conv2d: 2-6                       [-1, 64, 10, 10]          9,280
|    └─ReLU: 2-7                         [-1, 64, 10, 10]          --
├─Sequential: 1-4                        [-1, 64, 8, 8]            --
|    └─Conv2d: 2-8                       [-1, 64, 8, 8]            36,928
|    └─ReLU: 2-9                         [-1, 64, 8, 8]            --
├─Sequential: 1-5                        [-1, 64, 4, 4]            --
|    └─Conv2d: 2-10                      [-1, 64, 8, 8]            36,928
|    └─ReLU: 2-11                        [-1, 64, 8, 8]            --
|    └─MaxPool2d: 2-12                   [-1, 64, 4, 4]            --
├─Sequential: 1-6                        [-1, 2]                   --
|    └─Linear: 2-13                      [-1, 128]                 131,200
|    └─ReLU: 2-14                        [-1, 128]                 --
|    └─Linear: 2-15                      [-1, 128]                 16,512
|    └─ReLU: 2-16                        [-1, 128]                 --
|    └─Linear: 2-17                      [-1, 2]                   258
==========================================================================================
Total params: 233,586
Trainable params: 233,586
Non-trainable params: 0
Total mult-adds (M): 7.45
==========================================================================================
Input size (MB): 0.00
Forward/backward pass size (MB): 0.27
Params size (MB): 0.89
Estimated Total Size (MB): 1.16
========================================================================================== 
==========================================================================================
Layer (type:depth-idx)                   Output Shape              Param #
==========================================================================================
├─Sequential: 1-1                        [-1, 16, 26, 26]          --
|    └─Conv2d: 2-1                       [-1, 16, 26, 26]          160
|    └─ReLU: 2-2                         [-1, 16, 26, 26]          --
├─Sequential: 1-2                        [-1, 16, 12, 12]          --
|    └─Conv2d: 2-3                       [-1, 16, 24, 24]          2,320
|    └─ReLU: 2-4                         [-1, 16, 24, 24]          --
|    └─MaxPool2d: 2-5                    [-1, 16, 12, 12]          --
├─Sequential: 1-3                        [-1, 64, 10, 10]          --
|    └─Conv2d: 2-6                       [-1, 64, 10, 10]          9,280
|    └─ReLU: 2-7                         [-1, 64, 10, 10]          --
├─Sequential: 1-4                        [-1, 64, 8, 8]            --
|    └─Conv2d: 2-8                       [-1, 64, 8, 8]            36,928
|    └─ReLU: 2-9                         [-1, 64, 8, 8]            --
├─Sequential: 1-5                        [-1, 64, 4, 4]            --
|    └─Conv2d: 2-10                      [-1, 64, 8, 8]            36,928
|    └─ReLU: 2-11                        [-1, 64, 8, 8]            --
|    └─MaxPool2d: 2-12                   [-1, 64, 4, 4]            --
├─Sequential: 1-6                        [-1, 2]                   --
|    └─Linear: 2-13                      [-1, 128]                 131,200
|    └─ReLU: 2-14                        [-1, 128]                 --
|    └─Linear: 2-15                      [-1, 128]                 16,512
|    └─ReLU: 2-16                        [-1, 128]                 --
|    └─Linear: 2-17                      [-1, 2]                   258
==========================================================================================
Total params: 233,586
Trainable params: 233,586
Non-trainable params: 0
Total mult-adds (M): 7.45
==========================================================================================
Input size (MB): 0.00
Forward/backward pass size (MB): 0.27
Params size (MB): 0.89
Estimated Total Size (MB): 1.16
========================================================================================== 
==========================================================================================
Layer (type:depth-idx)                   Output Shape              Param #
==========================================================================================
├─Sequential: 1-1                        [-1, 16, 26, 26]          --
|    └─Conv2d: 2-1                       [-1, 16, 26, 26]          160
|    └─ReLU: 2-2                         [-1, 16, 26, 26]          --
├─Sequential: 1-2                        [-1, 16, 12, 12]          --
|    └─Conv2d: 2-3                       [-1, 16, 24, 24]          2,320
|    └─ReLU: 2-4                         [-1, 16, 24, 24]          --
|    └─MaxPool2d: 2-5                    [-1, 16, 12, 12]          --
├─Sequential: 1-3                        [-1, 64, 10, 10]          --
|    └─Conv2d: 2-6                       [-1, 64, 10, 10]          9,280
|    └─ReLU: 2-7                         [-1, 64, 10, 10]          --
├─Sequential: 1-4                        [-1, 64, 8, 8]            --
|    └─Conv2d: 2-8                       [-1, 64, 8, 8]            36,928
|    └─ReLU: 2-9                         [-1, 64, 8, 8]            --
├─Sequential: 1-5                        [-1, 64, 4, 4]            --
|    └─Conv2d: 2-10                      [-1, 64, 8, 8]            36,928
|    └─ReLU: 2-11                        [-1, 64, 8, 8]            --
|    └─MaxPool2d: 2-12                   [-1, 64, 4, 4]            --
├─Sequential: 1-6                        [-1, 2]                   --
|    └─Linear: 2-13                      [-1, 128]                 131,200
|    └─ReLU: 2-14                        [-1, 128]                 --
|    └─Linear: 2-15                      [-1, 128]                 16,512
|    └─ReLU: 2-16                        [-1, 128]                 --
|    └─Linear: 2-17                      [-1, 2]                   258
==========================================================================================
Total params: 233,586
Trainable params: 233,586
Non-trainable params: 0
Total mult-adds (M): 7.45
==========================================================================================
Input size (MB): 0.00
Forward/backward pass size (MB): 0.27
Params size (MB): 0.89
Estimated Total Size (MB): 1.16
========================================================================================== 
==========================================================================================
Layer (type:depth-idx)                   Output Shape              Param #
==========================================================================================
├─Sequential: 1-1                        [-1, 16, 26, 26]          --
|    └─Conv2d: 2-1                       [-1, 16, 26, 26]          160
|    └─ReLU: 2-2                         [-1, 16, 26, 26]          --
├─Sequential: 1-2                        [-1, 16, 12, 12]          --
|    └─Conv2d: 2-3                       [-1, 16, 24, 24]          2,320
|    └─ReLU: 2-4                         [-1, 16, 24, 24]          --
|    └─MaxPool2d: 2-5                    [-1, 16, 12, 12]          --
├─Sequential: 1-3                        [-1, 64, 10, 10]          --
|    └─Conv2d: 2-6                       [-1, 64, 10, 10]          9,280
|    └─ReLU: 2-7                         [-1, 64, 10, 10]          --
├─Sequential: 1-4                        [-1, 64, 8, 8]            --
|    └─Conv2d: 2-8                       [-1, 64, 8, 8]            36,928
|    └─ReLU: 2-9                         [-1, 64, 8, 8]            --
├─Sequential: 1-5                        [-1, 64, 4, 4]            --
|    └─Conv2d: 2-10                      [-1, 64, 8, 8]            36,928
|    └─ReLU: 2-11                        [-1, 64, 8, 8]            --
|    └─MaxPool2d: 2-12                   [-1, 64, 4, 4]            --
├─Sequential: 1-6                        [-1, 2]                   --
|    └─Linear: 2-13                      [-1, 128]                 131,200
|    └─ReLU: 2-14                        [-1, 128]                 --
|    └─Linear: 2-15                      [-1, 128]                 16,512
|    └─ReLU: 2-16                        [-1, 128]                 --
|    └─Linear: 2-17                      [-1, 2]                   258
==========================================================================================
Total params: 233,586
Trainable params: 233,586
Non-trainable params: 0
Total mult-adds (M): 7.45
==========================================================================================
Input size (MB): 0.00
Forward/backward pass size (MB): 0.27
Params size (MB): 0.89
Estimated Total Size (MB): 1.16
========================================================================================== 
==========================================================================================
Layer (type:depth-idx)                   Output Shape              Param #
==========================================================================================
├─Sequential: 1-1                        [-1, 16, 26, 26]          --
|    └─Conv2d: 2-1                       [-1, 16, 26, 26]          160
|    └─ReLU: 2-2                         [-1, 16, 26, 26]          --
├─Sequential: 1-2                        [-1, 16, 12, 12]          --
|    └─Conv2d: 2-3                       [-1, 16, 24, 24]          2,320
|    └─ReLU: 2-4                         [-1, 16, 24, 24]          --
|    └─MaxPool2d: 2-5                    [-1, 16, 12, 12]          --
├─Sequential: 1-3                        [-1, 64, 10, 10]          --
|    └─Conv2d: 2-6                       [-1, 64, 10, 10]          9,280
|    └─ReLU: 2-7                         [-1, 64, 10, 10]          --
├─Sequential: 1-4                        [-1, 64, 8, 8]            --
|    └─Conv2d: 2-8                       [-1, 64, 8, 8]            36,928
|    └─ReLU: 2-9                         [-1, 64, 8, 8]            --
├─Sequential: 1-5                        [-1, 64, 4, 4]            --
|    └─Conv2d: 2-10                      [-1, 64, 8, 8]            36,928
|    └─ReLU: 2-11                        [-1, 64, 8, 8]            --
|    └─MaxPool2d: 2-12                   [-1, 64, 4, 4]            --
├─Sequential: 1-6                        [-1, 2]                   --
|    └─Linear: 2-13                      [-1, 128]                 131,200
|    └─ReLU: 2-14                        [-1, 128]                 --
|    └─Linear: 2-15                      [-1, 128]                 16,512
|    └─ReLU: 2-16                        [-1, 128]                 --
|    └─Linear: 2-17                      [-1, 2]                   258
==========================================================================================
Total params: 233,586
Trainable params: 233,586
Non-trainable params: 0
Total mult-adds (M): 7.45
==========================================================================================
Input size (MB): 0.00
Forward/backward pass size (MB): 0.27
Params size (MB): 0.89
Estimated Total Size (MB): 1.16
========================================================================================== 
==========================================================================================
Layer (type:depth-idx)                   Output Shape              Param #
==========================================================================================
├─Sequential: 1-1                        [-1, 16, 26, 26]          --
|    └─Conv2d: 2-1                       [-1, 16, 26, 26]          160
|    └─ReLU: 2-2                         [-1, 16, 26, 26]          --
├─Sequential: 1-2                        [-1, 16, 12, 12]          --
|    └─Conv2d: 2-3                       [-1, 16, 24, 24]          2,320
|    └─ReLU: 2-4                         [-1, 16, 24, 24]          --
|    └─MaxPool2d: 2-5                    [-1, 16, 12, 12]          --
├─Sequential: 1-3                        [-1, 64, 10, 10]          --
|    └─Conv2d: 2-6                       [-1, 64, 10, 10]          9,280
|    └─ReLU: 2-7                         [-1, 64, 10, 10]          --
├─Sequential: 1-4                        [-1, 64, 8, 8]            --
|    └─Conv2d: 2-8                       [-1, 64, 8, 8]            36,928
|    └─ReLU: 2-9                         [-1, 64, 8, 8]            --
├─Sequential: 1-5                        [-1, 64, 4, 4]            --
|    └─Conv2d: 2-10                      [-1, 64, 8, 8]            36,928
|    └─ReLU: 2-11                        [-1, 64, 8, 8]            --
|    └─MaxPool2d: 2-12                   [-1, 64, 4, 4]            --
├─Sequential: 1-6                        [-1, 2]                   --
|    └─Linear: 2-13                      [-1, 128]                 131,200
|    └─ReLU: 2-14                        [-1, 128]                 --
|    └─Linear: 2-15                      [-1, 128]                 16,512
|    └─ReLU: 2-16                        [-1, 128]                 --
|    └─Linear: 2-17                      [-1, 2]                   258
==========================================================================================
Total params: 233,586
Trainable params: 233,586
Non-trainable params: 0
Total mult-adds (M): 7.45
==========================================================================================
Input size (MB): 0.00
Forward/backward pass size (MB): 0.27
Params size (MB): 0.89
Estimated Total Size (MB): 1.16
========================================================================================== 
==========================================================================================
Layer (type:depth-idx)                   Output Shape              Param #
==========================================================================================
├─Sequential: 1-1                        [-1, 16, 26, 26]          --
|    └─Conv2d: 2-1                       [-1, 16, 26, 26]          160
|    └─ReLU: 2-2                         [-1, 16, 26, 26]          --
├─Sequential: 1-2                        [-1, 16, 12, 12]          --
|    └─Conv2d: 2-3                       [-1, 16, 24, 24]          2,320
|    └─ReLU: 2-4                         [-1, 16, 24, 24]          --
|    └─MaxPool2d: 2-5                    [-1, 16, 12, 12]          --
├─Sequential: 1-3                        [-1, 64, 10, 10]          --
|    └─Conv2d: 2-6                       [-1, 64, 10, 10]          9,280
|    └─ReLU: 2-7                         [-1, 64, 10, 10]          --
├─Sequential: 1-4                        [-1, 64, 8, 8]            --
|    └─Conv2d: 2-8                       [-1, 64, 8, 8]            36,928
|    └─ReLU: 2-9                         [-1, 64, 8, 8]            --
├─Sequential: 1-5                        [-1, 64, 4, 4]            --
|    └─Conv2d: 2-10                      [-1, 64, 8, 8]            36,928
|    └─ReLU: 2-11                        [-1, 64, 8, 8]            --
|    └─MaxPool2d: 2-12                   [-1, 64, 4, 4]            --
├─Sequential: 1-6                        [-1, 2]                   --
|    └─Linear: 2-13                      [-1, 128]                 131,200
|    └─ReLU: 2-14                        [-1, 128]                 --
|    └─Linear: 2-15                      [-1, 128]                 16,512
|    └─ReLU: 2-16                        [-1, 128]                 --
|    └─Linear: 2-17                      [-1, 2]                   258
==========================================================================================
Total params: 233,586
Trainable params: 233,586
Non-trainable params: 0
Total mult-adds (M): 7.45
==========================================================================================
Input size (MB): 0.00
Forward/backward pass size (MB): 0.27
Params size (MB): 0.89
Estimated Total Size (MB): 1.16
========================================================================================== 
==========================================================================================
Layer (type:depth-idx)                   Output Shape              Param #
==========================================================================================
├─Sequential: 1-1                        [-1, 16, 26, 26]          --
|    └─Conv2d: 2-1                       [-1, 16, 26, 26]          160
|    └─ReLU: 2-2                         [-1, 16, 26, 26]          --
├─Sequential: 1-2                        [-1, 16, 12, 12]          --
|    └─Conv2d: 2-3                       [-1, 16, 24, 24]          2,320
|    └─ReLU: 2-4                         [-1, 16, 24, 24]          --
|    └─MaxPool2d: 2-5                    [-1, 16, 12, 12]          --
├─Sequential: 1-3                        [-1, 64, 10, 10]          --
|    └─Conv2d: 2-6                       [-1, 64, 10, 10]          9,280
|    └─ReLU: 2-7                         [-1, 64, 10, 10]          --
├─Sequential: 1-4                        [-1, 64, 8, 8]            --
|    └─Conv2d: 2-8                       [-1, 64, 8, 8]            36,928
|    └─ReLU: 2-9                         [-1, 64, 8, 8]            --
├─Sequential: 1-5                        [-1, 64, 4, 4]            --
|    └─Conv2d: 2-10                      [-1, 64, 8, 8]            36,928
|    └─ReLU: 2-11                        [-1, 64, 8, 8]            --
|    └─MaxPool2d: 2-12                   [-1, 64, 4, 4]            --
├─Sequential: 1-6                        [-1, 2]                   --
|    └─Linear: 2-13                      [-1, 128]                 131,200
|    └─ReLU: 2-14                        [-1, 128]                 --
|    └─Linear: 2-15                      [-1, 128]                 16,512
|    └─ReLU: 2-16                        [-1, 128]                 --
|    └─Linear: 2-17                      [-1, 2]                   258
==========================================================================================
Total params: 233,586
Trainable params: 233,586
Non-trainable params: 0
Total mult-adds (M): 7.45
==========================================================================================
Input size (MB): 0.00
Forward/backward pass size (MB): 0.27
Params size (MB): 0.89
Estimated Total Size (MB): 1.16
========================================================================================== 
==========================================================================================
Layer (type:depth-idx)                   Output Shape              Param #
==========================================================================================
├─Sequential: 1-1                        [-1, 16, 26, 26]          --
|    └─Conv2d: 2-1                       [-1, 16, 26, 26]          160
|    └─ReLU: 2-2                         [-1, 16, 26, 26]          --
├─Sequential: 1-2                        [-1, 16, 12, 12]          --
|    └─Conv2d: 2-3                       [-1, 16, 24, 24]          2,320
|    └─ReLU: 2-4                         [-1, 16, 24, 24]          --
|    └─MaxPool2d: 2-5                    [-1, 16, 12, 12]          --
├─Sequential: 1-3                        [-1, 64, 10, 10]          --
|    └─Conv2d: 2-6                       [-1, 64, 10, 10]          9,280
|    └─ReLU: 2-7                         [-1, 64, 10, 10]          --
├─Sequential: 1-4                        [-1, 64, 8, 8]            --
|    └─Conv2d: 2-8                       [-1, 64, 8, 8]            36,928
|    └─ReLU: 2-9                         [-1, 64, 8, 8]            --
├─Sequential: 1-5                        [-1, 64, 4, 4]            --
|    └─Conv2d: 2-10                      [-1, 64, 8, 8]            36,928
|    └─ReLU: 2-11                        [-1, 64, 8, 8]            --
|    └─MaxPool2d: 2-12                   [-1, 64, 4, 4]            --
├─Sequential: 1-6                        [-1, 2]                   --
|    └─Linear: 2-13                      [-1, 128]                 131,200
|    └─ReLU: 2-14                        [-1, 128]                 --
|    └─Linear: 2-15                      [-1, 128]                 16,512
|    └─ReLU: 2-16                        [-1, 128]                 --
|    └─Linear: 2-17                      [-1, 2]                   258
==========================================================================================
Total params: 233,586
Trainable params: 233,586
Non-trainable params: 0
Total mult-adds (M): 7.45
==========================================================================================
Input size (MB): 0.00
Forward/backward pass size (MB): 0.27
Params size (MB): 0.89
Estimated Total Size (MB): 1.16
========================================================================================== 
==========================================================================================
Layer (type:depth-idx)                   Output Shape              Param #
==========================================================================================
├─Sequential: 1-1                        [-1, 16, 26, 26]          --
|    └─Conv2d: 2-1                       [-1, 16, 26, 26]          160
|    └─ReLU: 2-2                         [-1, 16, 26, 26]          --
├─Sequential: 1-2                        [-1, 16, 12, 12]          --
|    └─Conv2d: 2-3                       [-1, 16, 24, 24]          2,320
|    └─ReLU: 2-4                         [-1, 16, 24, 24]          --
|    └─MaxPool2d: 2-5                    [-1, 16, 12, 12]          --
├─Sequential: 1-3                        [-1, 64, 10, 10]          --
|    └─Conv2d: 2-6                       [-1, 64, 10, 10]          9,280
|    └─ReLU: 2-7                         [-1, 64, 10, 10]          --
├─Sequential: 1-4                        [-1, 64, 8, 8]            --
|    └─Conv2d: 2-8                       [-1, 64, 8, 8]            36,928
|    └─ReLU: 2-9                         [-1, 64, 8, 8]            --
├─Sequential: 1-5                        [-1, 64, 4, 4]            --
|    └─Conv2d: 2-10                      [-1, 64, 8, 8]            36,928
|    └─ReLU: 2-11                        [-1, 64, 8, 8]            --
|    └─MaxPool2d: 2-12                   [-1, 64, 4, 4]            --
├─Sequential: 1-6                        [-1, 2]                   --
|    └─Linear: 2-13                      [-1, 128]                 131,200
|    └─ReLU: 2-14                        [-1, 128]                 --
|    └─Linear: 2-15                      [-1, 128]                 16,512
|    └─ReLU: 2-16                        [-1, 128]                 --
|    └─Linear: 2-17                      [-1, 2]                   258
==========================================================================================
Total params: 233,586
Trainable params: 233,586
Non-trainable params: 0
Total mult-adds (M): 7.45
==========================================================================================
Input size (MB): 0.00
Forward/backward pass size (MB): 0.27
Params size (MB): 0.89
Estimated Total Size (MB): 1.16
========================================================================================== 
==========================================================================================
Layer (type:depth-idx)                   Output Shape              Param #
==========================================================================================
├─Sequential: 1-1                        [-1, 16, 26, 26]          --
|    └─Conv2d: 2-1                       [-1, 16, 26, 26]          160
|    └─ReLU: 2-2                         [-1, 16, 26, 26]          --
├─Sequential: 1-2                        [-1, 16, 12, 12]          --
|    └─Conv2d: 2-3                       [-1, 16, 24, 24]          2,320
|    └─ReLU: 2-4                         [-1, 16, 24, 24]          --
|    └─MaxPool2d: 2-5                    [-1, 16, 12, 12]          --
├─Sequential: 1-3                        [-1, 64, 10, 10]          --
|    └─Conv2d: 2-6                       [-1, 64, 10, 10]          9,280
|    └─ReLU: 2-7                         [-1, 64, 10, 10]          --
├─Sequential: 1-4                        [-1, 64, 8, 8]            --
|    └─Conv2d: 2-8                       [-1, 64, 8, 8]            36,928
|    └─ReLU: 2-9                         [-1, 64, 8, 8]            --
├─Sequential: 1-5                        [-1, 64, 4, 4]            --
|    └─Conv2d: 2-10                      [-1, 64, 8, 8]            36,928
|    └─ReLU: 2-11                        [-1, 64, 8, 8]            --
|    └─MaxPool2d: 2-12                   [-1, 64, 4, 4]            --
├─Sequential: 1-6                        [-1, 2]                   --
|    └─Linear: 2-13                      [-1, 128]                 131,200
|    └─ReLU: 2-14                        [-1, 128]                 --
|    └─Linear: 2-15                      [-1, 128]                 16,512
|    └─ReLU: 2-16                        [-1, 128]                 --
|    └─Linear: 2-17                      [-1, 2]                   258
==========================================================================================
Total params: 233,586
Trainable params: 233,586
Non-trainable params: 0
Total mult-adds (M): 7.45
==========================================================================================
Input size (MB): 0.00
Forward/backward pass size (MB): 0.27
Params size (MB): 0.89
Estimated Total Size (MB): 1.16
========================================================================================== 
==========================================================================================
Layer (type:depth-idx)                   Output Shape              Param #
==========================================================================================
├─Sequential: 1-1                        [-1, 16, 26, 26]          --
|    └─Conv2d: 2-1                       [-1, 16, 26, 26]          160
|    └─ReLU: 2-2                         [-1, 16, 26, 26]          --
├─Sequential: 1-2                        [-1, 16, 12, 12]          --
|    └─Conv2d: 2-3                       [-1, 16, 24, 24]          2,320
|    └─ReLU: 2-4                         [-1, 16, 24, 24]          --
|    └─MaxPool2d: 2-5                    [-1, 16, 12, 12]          --
├─Sequential: 1-3                        [-1, 64, 10, 10]          --
|    └─Conv2d: 2-6                       [-1, 64, 10, 10]          9,280
|    └─ReLU: 2-7                         [-1, 64, 10, 10]          --
├─Sequential: 1-4                        [-1, 64, 8, 8]            --
|    └─Conv2d: 2-8                       [-1, 64, 8, 8]            36,928
|    └─ReLU: 2-9                         [-1, 64, 8, 8]            --
├─Sequential: 1-5                        [-1, 64, 4, 4]            --
|    └─Conv2d: 2-10                      [-1, 64, 8, 8]            36,928
|    └─ReLU: 2-11                        [-1, 64, 8, 8]            --
|    └─MaxPool2d: 2-12                   [-1, 64, 4, 4]            --
├─Sequential: 1-6                        [-1, 2]                   --
|    └─Linear: 2-13                      [-1, 128]                 131,200
|    └─ReLU: 2-14                        [-1, 128]                 --
|    └─Linear: 2-15                      [-1, 128]                 16,512
|    └─ReLU: 2-16                        [-1, 128]                 --
|    └─Linear: 2-17                      [-1, 2]                   258
==========================================================================================
Total params: 233,586
Trainable params: 233,586
Non-trainable params: 0
Total mult-adds (M): 7.45
==========================================================================================
Input size (MB): 0.00
Forward/backward pass size (MB): 0.27
Params size (MB): 0.89
Estimated Total Size (MB): 1.16
========================================================================================== 
==========================================================================================
Layer (type:depth-idx)                   Output Shape              Param #
==========================================================================================
├─Sequential: 1-1                        [-1, 16, 26, 26]          --
|    └─Conv2d: 2-1                       [-1, 16, 26, 26]          160
|    └─ReLU: 2-2                         [-1, 16, 26, 26]          --
├─Sequential: 1-2                        [-1, 16, 12, 12]          --
|    └─Conv2d: 2-3                       [-1, 16, 24, 24]          2,320
|    └─ReLU: 2-4                         [-1, 16, 24, 24]          --
|    └─MaxPool2d: 2-5                    [-1, 16, 12, 12]          --
├─Sequential: 1-3                        [-1, 64, 10, 10]          --
|    └─Conv2d: 2-6                       [-1, 64, 10, 10]          9,280
|    └─ReLU: 2-7                         [-1, 64, 10, 10]          --
├─Sequential: 1-4                        [-1, 64, 8, 8]            --
|    └─Conv2d: 2-8                       [-1, 64, 8, 8]            36,928
|    └─ReLU: 2-9                         [-1, 64, 8, 8]            --
├─Sequential: 1-5                        [-1, 64, 4, 4]            --
|    └─Conv2d: 2-10                      [-1, 64, 8, 8]            36,928
|    └─ReLU: 2-11                        [-1, 64, 8, 8]            --
|    └─MaxPool2d: 2-12                   [-1, 64, 4, 4]            --
├─Sequential: 1-6                        [-1, 2]                   --
|    └─Linear: 2-13                      [-1, 128]                 131,200
|    └─ReLU: 2-14                        [-1, 128]                 --
|    └─Linear: 2-15                      [-1, 128]                 16,512
|    └─ReLU: 2-16                        [-1, 128]                 --
|    └─Linear: 2-17                      [-1, 2]                   258
==========================================================================================
Total params: 233,586
Trainable params: 233,586
Non-trainable params: 0
Total mult-adds (M): 7.45
==========================================================================================
Input size (MB): 0.00
Forward/backward pass size (MB): 0.27
Params size (MB): 0.89
Estimated Total Size (MB): 1.16
========================================================================================== 
==========================================================================================
Layer (type:depth-idx)                   Output Shape              Param #
==========================================================================================
├─Sequential: 1-1                        [-1, 16, 26, 26]          --
|    └─Conv2d: 2-1                       [-1, 16, 26, 26]          160
|    └─ReLU: 2-2                         [-1, 16, 26, 26]          --
├─Sequential: 1-2                        [-1, 16, 12, 12]          --
|    └─Conv2d: 2-3                       [-1, 16, 24, 24]          2,320
|    └─ReLU: 2-4                         [-1, 16, 24, 24]          --
|    └─MaxPool2d: 2-5                    [-1, 16, 12, 12]          --
├─Sequential: 1-3                        [-1, 64, 10, 10]          --
|    └─Conv2d: 2-6                       [-1, 64, 10, 10]          9,280
|    └─ReLU: 2-7                         [-1, 64, 10, 10]          --
├─Sequential: 1-4                        [-1, 64, 8, 8]            --
|    └─Conv2d: 2-8                       [-1, 64, 8, 8]            36,928
|    └─ReLU: 2-9                         [-1, 64, 8, 8]            --
├─Sequential: 1-5                        [-1, 64, 4, 4]            --
|    └─Conv2d: 2-10                      [-1, 64, 8, 8]            36,928
|    └─ReLU: 2-11                        [-1, 64, 8, 8]            --
|    └─MaxPool2d: 2-12                   [-1, 64, 4, 4]            --
├─Sequential: 1-6                        [-1, 2]                   --
|    └─Linear: 2-13                      [-1, 128]                 131,200
|    └─ReLU: 2-14                        [-1, 128]                 --
|    └─Linear: 2-15                      [-1, 128]                 16,512
|    └─ReLU: 2-16                        [-1, 128]                 --
|    └─Linear: 2-17                      [-1, 2]                   258
==========================================================================================
Total params: 233,586
Trainable params: 233,586
Non-trainable params: 0
Total mult-adds (M): 7.45
==========================================================================================
Input size (MB): 0.00
Forward/backward pass size (MB): 0.27
Params size (MB): 0.89
Estimated Total Size (MB): 1.16
========================================================================================== 
==========================================================================================
Layer (type:depth-idx)                   Output Shape              Param #
==========================================================================================
├─Sequential: 1-1                        [-1, 16, 26, 26]          --
|    └─Conv2d: 2-1                       [-1, 16, 26, 26]          160
|    └─ReLU: 2-2                         [-1, 16, 26, 26]          --
├─Sequential: 1-2                        [-1, 16, 12, 12]          --
|    └─Conv2d: 2-3                       [-1, 16, 24, 24]          2,320
|    └─ReLU: 2-4                         [-1, 16, 24, 24]          --
|    └─MaxPool2d: 2-5                    [-1, 16, 12, 12]          --
├─Sequential: 1-3                        [-1, 64, 10, 10]          --
|    └─Conv2d: 2-6                       [-1, 64, 10, 10]          9,280
|    └─ReLU: 2-7                         [-1, 64, 10, 10]          --
├─Sequential: 1-4                        [-1, 64, 8, 8]            --
|    └─Conv2d: 2-8                       [-1, 64, 8, 8]            36,928
|    └─ReLU: 2-9                         [-1, 64, 8, 8]            --
├─Sequential: 1-5                        [-1, 64, 4, 4]            --
|    └─Conv2d: 2-10                      [-1, 64, 8, 8]            36,928
|    └─ReLU: 2-11                        [-1, 64, 8, 8]            --
|    └─MaxPool2d: 2-12                   [-1, 64, 4, 4]            --
├─Sequential: 1-6                        [-1, 2]                   --
|    └─Linear: 2-13                      [-1, 128]                 131,200
|    └─ReLU: 2-14                        [-1, 128]                 --
|    └─Linear: 2-15                      [-1, 128]                 16,512
|    └─ReLU: 2-16                        [-1, 128]                 --
|    └─Linear: 2-17                      [-1, 2]                   258
==========================================================================================
Total params: 233,586
Trainable params: 233,586
Non-trainable params: 0
Total mult-adds (M): 7.45
==========================================================================================
Input size (MB): 0.00
Forward/backward pass size (MB): 0.27
Params size (MB): 0.89
Estimated Total Size (MB): 1.16
========================================================================================== 
==========================================================================================
Layer (type:depth-idx)                   Output Shape              Param #
==========================================================================================
├─Sequential: 1-1                        [-1, 16, 26, 26]          --
|    └─Conv2d: 2-1                       [-1, 16, 26, 26]          160
|    └─ReLU: 2-2                         [-1, 16, 26, 26]          --
├─Sequential: 1-2                        [-1, 16, 12, 12]          --
|    └─Conv2d: 2-3                       [-1, 16, 24, 24]          2,320
|    └─ReLU: 2-4                         [-1, 16, 24, 24]          --
|    └─MaxPool2d: 2-5                    [-1, 16, 12, 12]          --
├─Sequential: 1-3                        [-1, 64, 10, 10]          --
|    └─Conv2d: 2-6                       [-1, 64, 10, 10]          9,280
|    └─ReLU: 2-7                         [-1, 64, 10, 10]          --
├─Sequential: 1-4                        [-1, 64, 8, 8]            --
|    └─Conv2d: 2-8                       [-1, 64, 8, 8]            36,928
|    └─ReLU: 2-9                         [-1, 64, 8, 8]            --
├─Sequential: 1-5                        [-1, 64, 4, 4]            --
|    └─Conv2d: 2-10                      [-1, 64, 8, 8]            36,928
|    └─ReLU: 2-11                        [-1, 64, 8, 8]            --
|    └─MaxPool2d: 2-12                   [-1, 64, 4, 4]            --
├─Sequential: 1-6                        [-1, 2]                   --
|    └─Linear: 2-13                      [-1, 128]                 131,200
|    └─ReLU: 2-14                        [-1, 128]                 --
|    └─Linear: 2-15                      [-1, 128]                 16,512
|    └─ReLU: 2-16                        [-1, 128]                 --
|    └─Linear: 2-17                      [-1, 2]                   258
==========================================================================================
Total params: 233,586
Trainable params: 233,586
Non-trainable params: 0
Total mult-adds (M): 7.45
==========================================================================================
Input size (MB): 0.00
Forward/backward pass size (MB): 0.27
Params size (MB): 0.89
Estimated Total Size (MB): 1.16
========================================================================================== 
==========================================================================================
Layer (type:depth-idx)                   Output Shape              Param #
==========================================================================================
├─Sequential: 1-1                        [-1, 16, 26, 26]          --
|    └─Conv2d: 2-1                       [-1, 16, 26, 26]          160
|    └─ReLU: 2-2                         [-1, 16, 26, 26]          --
├─Sequential: 1-2                        [-1, 16, 12, 12]          --
|    └─Conv2d: 2-3                       [-1, 16, 24, 24]          2,320
|    └─ReLU: 2-4                         [-1, 16, 24, 24]          --
|    └─MaxPool2d: 2-5                    [-1, 16, 12, 12]          --
├─Sequential: 1-3                        [-1, 64, 10, 10]          --
|    └─Conv2d: 2-6                       [-1, 64, 10, 10]          9,280
|    └─ReLU: 2-7                         [-1, 64, 10, 10]          --
├─Sequential: 1-4                        [-1, 64, 8, 8]            --
|    └─Conv2d: 2-8                       [-1, 64, 8, 8]            36,928
|    └─ReLU: 2-9                         [-1, 64, 8, 8]            --
├─Sequential: 1-5                        [-1, 64, 4, 4]            --
|    └─Conv2d: 2-10                      [-1, 64, 8, 8]            36,928
|    └─ReLU: 2-11                        [-1, 64, 8, 8]            --
|    └─MaxPool2d: 2-12                   [-1, 64, 4, 4]            --
├─Sequential: 1-6                        [-1, 2]                   --
|    └─Linear: 2-13                      [-1, 128]                 131,200
|    └─ReLU: 2-14                        [-1, 128]                 --
|    └─Linear: 2-15                      [-1, 128]                 16,512
|    └─ReLU: 2-16                        [-1, 128]                 --
|    └─Linear: 2-17                      [-1, 2]                   258
==========================================================================================
Total params: 233,586
Trainable params: 233,586
Non-trainable params: 0
Total mult-adds (M): 7.45
==========================================================================================
Input size (MB): 0.00
Forward/backward pass size (MB): 0.27
Params size (MB): 0.89
Estimated Total Size (MB): 1.16
========================================================================================== 
==========================================================================================
Layer (type:depth-idx)                   Output Shape              Param #
==========================================================================================
├─Sequential: 1-1                        [-1, 16, 26, 26]          --
|    └─Conv2d: 2-1                       [-1, 16, 26, 26]          160
|    └─ReLU: 2-2                         [-1, 16, 26, 26]          --
├─Sequential: 1-2                        [-1, 16, 12, 12]          --
|    └─Conv2d: 2-3                       [-1, 16, 24, 24]          2,320
|    └─ReLU: 2-4                         [-1, 16, 24, 24]          --
|    └─MaxPool2d: 2-5                    [-1, 16, 12, 12]          --
├─Sequential: 1-3                        [-1, 64, 10, 10]          --
|    └─Conv2d: 2-6                       [-1, 64, 10, 10]          9,280
|    └─ReLU: 2-7                         [-1, 64, 10, 10]          --
├─Sequential: 1-4                        [-1, 64, 8, 8]            --
|    └─Conv2d: 2-8                       [-1, 64, 8, 8]            36,928
|    └─ReLU: 2-9                         [-1, 64, 8, 8]            --
├─Sequential: 1-5                        [-1, 64, 4, 4]            --
|    └─Conv2d: 2-10                      [-1, 64, 8, 8]            36,928
|    └─ReLU: 2-11                        [-1, 64, 8, 8]            --
|    └─MaxPool2d: 2-12                   [-1, 64, 4, 4]            --
├─Sequential: 1-6                        [-1, 2]                   --
|    └─Linear: 2-13                      [-1, 128]                 131,200
|    └─ReLU: 2-14                        [-1, 128]                 --
|    └─Linear: 2-15                      [-1, 128]                 16,512
|    └─ReLU: 2-16                        [-1, 128]                 --
|    └─Linear: 2-17                      [-1, 2]                   258
==========================================================================================
Total params: 233,586
Trainable params: 233,586
Non-trainable params: 0
Total mult-adds (M): 7.45
==========================================================================================
Input size (MB): 0.00
Forward/backward pass size (MB): 0.27
Params size (MB): 0.89
Estimated Total Size (MB): 1.16
========================================================================================== 
==========================================================================================
Layer (type:depth-idx)                   Output Shape              Param #
==========================================================================================
├─Sequential: 1-1                        [-1, 16, 26, 26]          --
|    └─Conv2d: 2-1                       [-1, 16, 26, 26]          160
|    └─ReLU: 2-2                         [-1, 16, 26, 26]          --
├─Sequential: 1-2                        [-1, 16, 12, 12]          --
|    └─Conv2d: 2-3                       [-1, 16, 24, 24]          2,320
|    └─ReLU: 2-4                         [-1, 16, 24, 24]          --
|    └─MaxPool2d: 2-5                    [-1, 16, 12, 12]          --
├─Sequential: 1-3                        [-1, 64, 10, 10]          --
|    └─Conv2d: 2-6                       [-1, 64, 10, 10]          9,280
|    └─ReLU: 2-7                         [-1, 64, 10, 10]          --
├─Sequential: 1-4                        [-1, 64, 8, 8]            --
|    └─Conv2d: 2-8                       [-1, 64, 8, 8]            36,928
|    └─ReLU: 2-9                         [-1, 64, 8, 8]            --
├─Sequential: 1-5                        [-1, 64, 4, 4]            --
|    └─Conv2d: 2-10                      [-1, 64, 8, 8]            36,928
|    └─ReLU: 2-11                        [-1, 64, 8, 8]            --
|    └─MaxPool2d: 2-12                   [-1, 64, 4, 4]            --
├─Sequential: 1-6                        [-1, 2]                   --
|    └─Linear: 2-13                      [-1, 128]                 131,200
|    └─ReLU: 2-14                        [-1, 128]                 --
|    └─Linear: 2-15                      [-1, 128]                 16,512
|    └─ReLU: 2-16                        [-1, 128]                 --
|    └─Linear: 2-17                      [-1, 2]                   258
==========================================================================================
Total params: 233,586
Trainable params: 233,586
Non-trainable params: 0
Total mult-adds (M): 7.45
==========================================================================================
Input size (MB): 0.00
Forward/backward pass size (MB): 0.27
Params size (MB): 0.89
Estimated Total Size (MB): 1.16
========================================================================================== 
==========================================================================================
Layer (type:depth-idx)                   Output Shape              Param #
==========================================================================================
├─Sequential: 1-1                        [-1, 16, 26, 26]          --
|    └─Conv2d: 2-1                       [-1, 16, 26, 26]          160
|    └─ReLU: 2-2                         [-1, 16, 26, 26]          --
├─Sequential: 1-2                        [-1, 16, 12, 12]          --
|    └─Conv2d: 2-3                       [-1, 16, 24, 24]          2,320
|    └─ReLU: 2-4                         [-1, 16, 24, 24]          --
|    └─MaxPool2d: 2-5                    [-1, 16, 12, 12]          --
├─Sequential: 1-3                        [-1, 64, 10, 10]          --
|    └─Conv2d: 2-6                       [-1, 64, 10, 10]          9,280
|    └─ReLU: 2-7                         [-1, 64, 10, 10]          --
├─Sequential: 1-4                        [-1, 64, 8, 8]            --
|    └─Conv2d: 2-8                       [-1, 64, 8, 8]            36,928
|    └─ReLU: 2-9                         [-1, 64, 8, 8]            --
├─Sequential: 1-5                        [-1, 64, 4, 4]            --
|    └─Conv2d: 2-10                      [-1, 64, 8, 8]            36,928
|    └─ReLU: 2-11                        [-1, 64, 8, 8]            --
|    └─MaxPool2d: 2-12                   [-1, 64, 4, 4]            --
├─Sequential: 1-6                        [-1, 2]                   --
|    └─Linear: 2-13                      [-1, 128]                 131,200
|    └─ReLU: 2-14                        [-1, 128]                 --
|    └─Linear: 2-15                      [-1, 128]                 16,512
|    └─ReLU: 2-16                        [-1, 128]                 --
|    └─Linear: 2-17                      [-1, 2]                   258
==========================================================================================
Total params: 233,586
Trainable params: 233,586
Non-trainable params: 0
Total mult-adds (M): 7.45
==========================================================================================
Input size (MB): 0.00
Forward/backward pass size (MB): 0.27
Params size (MB): 0.89
Estimated Total Size (MB): 1.16
========================================================================================== 
==========================================================================================
Layer (type:depth-idx)                   Output Shape              Param #
==========================================================================================
├─Sequential: 1-1                        [-1, 16, 26, 26]          --
|    └─Conv2d: 2-1                       [-1, 16, 26, 26]          160
|    └─ReLU: 2-2                         [-1, 16, 26, 26]          --
├─Sequential: 1-2                        [-1, 16, 12, 12]          --
|    └─Conv2d: 2-3                       [-1, 16, 24, 24]          2,320
|    └─ReLU: 2-4                         [-1, 16, 24, 24]          --
|    └─MaxPool2d: 2-5                    [-1, 16, 12, 12]          --
├─Sequential: 1-3                        [-1, 64, 10, 10]          --
|    └─Conv2d: 2-6                       [-1, 64, 10, 10]          9,280
|    └─ReLU: 2-7                         [-1, 64, 10, 10]          --
├─Sequential: 1-4                        [-1, 64, 8, 8]            --
|    └─Conv2d: 2-8                       [-1, 64, 8, 8]            36,928
|    └─ReLU: 2-9                         [-1, 64, 8, 8]            --
├─Sequential: 1-5                        [-1, 64, 4, 4]            --
|    └─Conv2d: 2-10                      [-1, 64, 8, 8]            36,928
|    └─ReLU: 2-11                        [-1, 64, 8, 8]            --
|    └─MaxPool2d: 2-12                   [-1, 64, 4, 4]            --
├─Sequential: 1-6                        [-1, 2]                   --
|    └─Linear: 2-13                      [-1, 128]                 131,200
|    └─ReLU: 2-14                        [-1, 128]                 --
|    └─Linear: 2-15                      [-1, 128]                 16,512
|    └─ReLU: 2-16                        [-1, 128]                 --
|    └─Linear: 2-17                      [-1, 2]                   258
==========================================================================================
Total params: 233,586
Trainable params: 233,586
Non-trainable params: 0
Total mult-adds (M): 7.45
==========================================================================================
Input size (MB): 0.00
Forward/backward pass size (MB): 0.27
Params size (MB): 0.89
Estimated Total Size (MB): 1.16
========================================================================================== 
==========================================================================================
Layer (type:depth-idx)                   Output Shape              Param #
==========================================================================================
├─Sequential: 1-1                        [-1, 16, 26, 26]          --
|    └─Conv2d: 2-1                       [-1, 16, 26, 26]          160
|    └─ReLU: 2-2                         [-1, 16, 26, 26]          --
├─Sequential: 1-2                        [-1, 16, 12, 12]          --
|    └─Conv2d: 2-3                       [-1, 16, 24, 24]          2,320
|    └─ReLU: 2-4                         [-1, 16, 24, 24]          --
|    └─MaxPool2d: 2-5                    [-1, 16, 12, 12]          --
├─Sequential: 1-3                        [-1, 64, 10, 10]          --
|    └─Conv2d: 2-6                       [-1, 64, 10, 10]          9,280
|    └─ReLU: 2-7                         [-1, 64, 10, 10]          --
├─Sequential: 1-4                        [-1, 64, 8, 8]            --
|    └─Conv2d: 2-8                       [-1, 64, 8, 8]            36,928
|    └─ReLU: 2-9                         [-1, 64, 8, 8]            --
├─Sequential: 1-5                        [-1, 64, 4, 4]            --
|    └─Conv2d: 2-10                      [-1, 64, 8, 8]            36,928
|    └─ReLU: 2-11                        [-1, 64, 8, 8]            --
|    └─MaxPool2d: 2-12                   [-1, 64, 4, 4]            --
├─Sequential: 1-6                        [-1, 2]                   --
|    └─Linear: 2-13                      [-1, 128]                 131,200
|    └─ReLU: 2-14                        [-1, 128]                 --
|    └─Linear: 2-15                      [-1, 128]                 16,512
|    └─ReLU: 2-16                        [-1, 128]                 --
|    └─Linear: 2-17                      [-1, 2]                   258
==========================================================================================
Total params: 233,586
Trainable params: 233,586
Non-trainable params: 0
Total mult-adds (M): 7.45
==========================================================================================
Input size (MB): 0.00
Forward/backward pass size (MB): 0.27
Params size (MB): 0.89
Estimated Total Size (MB): 1.16
========================================================================================== 
==========================================================================================
Layer (type:depth-idx)                   Output Shape              Param #
==========================================================================================
├─Sequential: 1-1                        [-1, 16, 26, 26]          --
|    └─Conv2d: 2-1                       [-1, 16, 26, 26]          160
|    └─ReLU: 2-2                         [-1, 16, 26, 26]          --
├─Sequential: 1-2                        [-1, 16, 12, 12]          --
|    └─Conv2d: 2-3                       [-1, 16, 24, 24]          2,320
|    └─ReLU: 2-4                         [-1, 16, 24, 24]          --
|    └─MaxPool2d: 2-5                    [-1, 16, 12, 12]          --
├─Sequential: 1-3                        [-1, 64, 10, 10]          --
|    └─Conv2d: 2-6                       [-1, 64, 10, 10]          9,280
|    └─ReLU: 2-7                         [-1, 64, 10, 10]          --
├─Sequential: 1-4                        [-1, 64, 8, 8]            --
|    └─Conv2d: 2-8                       [-1, 64, 8, 8]            36,928
|    └─ReLU: 2-9                         [-1, 64, 8, 8]            --
├─Sequential: 1-5                        [-1, 64, 4, 4]            --
|    └─Conv2d: 2-10                      [-1, 64, 8, 8]            36,928
|    └─ReLU: 2-11                        [-1, 64, 8, 8]            --
|    └─MaxPool2d: 2-12                   [-1, 64, 4, 4]            --
├─Sequential: 1-6                        [-1, 2]                   --
|    └─Linear: 2-13                      [-1, 128]                 131,200
|    └─ReLU: 2-14                        [-1, 128]                 --
|    └─Linear: 2-15                      [-1, 128]                 16,512
|    └─ReLU: 2-16                        [-1, 128]                 --
|    └─Linear: 2-17                      [-1, 2]                   258
==========================================================================================
Total params: 233,586
Trainable params: 233,586
Non-trainable params: 0
Total mult-adds (M): 7.45
==========================================================================================
Input size (MB): 0.00
Forward/backward pass size (MB): 0.27
Params size (MB): 0.89
Estimated Total Size (MB): 1.16
========================================================================================== 
==========================================================================================
Layer (type:depth-idx)                   Output Shape              Param #
==========================================================================================
├─Sequential: 1-1                        [-1, 16, 26, 26]          --
|    └─Conv2d: 2-1                       [-1, 16, 26, 26]          160
|    └─ReLU: 2-2                         [-1, 16, 26, 26]          --
├─Sequential: 1-2                        [-1, 16, 12, 12]          --
|    └─Conv2d: 2-3                       [-1, 16, 24, 24]          2,320
|    └─ReLU: 2-4                         [-1, 16, 24, 24]          --
|    └─MaxPool2d: 2-5                    [-1, 16, 12, 12]          --
├─Sequential: 1-3                        [-1, 64, 10, 10]          --
|    └─Conv2d: 2-6                       [-1, 64, 10, 10]          9,280
|    └─ReLU: 2-7                         [-1, 64, 10, 10]          --
├─Sequential: 1-4                        [-1, 64, 8, 8]            --
|    └─Conv2d: 2-8                       [-1, 64, 8, 8]            36,928
|    └─ReLU: 2-9                         [-1, 64, 8, 8]            --
├─Sequential: 1-5                        [-1, 64, 4, 4]            --
|    └─Conv2d: 2-10                      [-1, 64, 8, 8]            36,928
|    └─ReLU: 2-11                        [-1, 64, 8, 8]            --
|    └─MaxPool2d: 2-12                   [-1, 64, 4, 4]            --
├─Sequential: 1-6                        [-1, 2]                   --
|    └─Linear: 2-13                      [-1, 128]                 131,200
|    └─ReLU: 2-14                        [-1, 128]                 --
|    └─Linear: 2-15                      [-1, 128]                 16,512
|    └─ReLU: 2-16                        [-1, 128]                 --
|    └─Linear: 2-17                      [-1, 2]                   258
==========================================================================================
Total params: 233,586
Trainable params: 233,586
Non-trainable params: 0
Total mult-adds (M): 7.45
==========================================================================================
Input size (MB): 0.00
Forward/backward pass size (MB): 0.27
Params size (MB): 0.89
Estimated Total Size (MB): 1.16
========================================================================================== 
==========================================================================================
Layer (type:depth-idx)                   Output Shape              Param #
==========================================================================================
├─Sequential: 1-1                        [-1, 16, 26, 26]          --
|    └─Conv2d: 2-1                       [-1, 16, 26, 26]          160
|    └─ReLU: 2-2                         [-1, 16, 26, 26]          --
├─Sequential: 1-2                        [-1, 16, 12, 12]          --
|    └─Conv2d: 2-3                       [-1, 16, 24, 24]          2,320
|    └─ReLU: 2-4                         [-1, 16, 24, 24]          --
|    └─MaxPool2d: 2-5                    [-1, 16, 12, 12]          --
├─Sequential: 1-3                        [-1, 64, 10, 10]          --
|    └─Conv2d: 2-6                       [-1, 64, 10, 10]          9,280
|    └─ReLU: 2-7                         [-1, 64, 10, 10]          --
├─Sequential: 1-4                        [-1, 64, 8, 8]            --
|    └─Conv2d: 2-8                       [-1, 64, 8, 8]            36,928
|    └─ReLU: 2-9                         [-1, 64, 8, 8]            --
├─Sequential: 1-5                        [-1, 64, 4, 4]            --
|    └─Conv2d: 2-10                      [-1, 64, 8, 8]            36,928
|    └─ReLU: 2-11                        [-1, 64, 8, 8]            --
|    └─MaxPool2d: 2-12                   [-1, 64, 4, 4]            --
├─Sequential: 1-6                        [-1, 2]                   --
|    └─Linear: 2-13                      [-1, 128]                 131,200
|    └─ReLU: 2-14                        [-1, 128]                 --
|    └─Linear: 2-15                      [-1, 128]                 16,512
|    └─ReLU: 2-16                        [-1, 128]                 --
|    └─Linear: 2-17                      [-1, 2]                   258
==========================================================================================
Total params: 233,586
Trainable params: 233,586
Non-trainable params: 0
Total mult-adds (M): 7.45
==========================================================================================
Input size (MB): 0.00
Forward/backward pass size (MB): 0.27
Params size (MB): 0.89
Estimated Total Size (MB): 1.16
========================================================================================== 
==========================================================================================
Layer (type:depth-idx)                   Output Shape              Param #
==========================================================================================
├─Sequential: 1-1                        [-1, 16, 26, 26]          --
|    └─Conv2d: 2-1                       [-1, 16, 26, 26]          160
|    └─ReLU: 2-2                         [-1, 16, 26, 26]          --
├─Sequential: 1-2                        [-1, 16, 12, 12]          --
|    └─Conv2d: 2-3                       [-1, 16, 24, 24]          2,320
|    └─ReLU: 2-4                         [-1, 16, 24, 24]          --
|    └─MaxPool2d: 2-5                    [-1, 16, 12, 12]          --
├─Sequential: 1-3                        [-1, 64, 10, 10]          --
|    └─Conv2d: 2-6                       [-1, 64, 10, 10]          9,280
|    └─ReLU: 2-7                         [-1, 64, 10, 10]          --
├─Sequential: 1-4                        [-1, 64, 8, 8]            --
|    └─Conv2d: 2-8                       [-1, 64, 8, 8]            36,928
|    └─ReLU: 2-9                         [-1, 64, 8, 8]            --
├─Sequential: 1-5                        [-1, 64, 4, 4]            --
|    └─Conv2d: 2-10                      [-1, 64, 8, 8]            36,928
|    └─ReLU: 2-11                        [-1, 64, 8, 8]            --
|    └─MaxPool2d: 2-12                   [-1, 64, 4, 4]            --
├─Sequential: 1-6                        [-1, 2]                   --
|    └─Linear: 2-13                      [-1, 128]                 131,200
|    └─ReLU: 2-14                        [-1, 128]                 --
|    └─Linear: 2-15                      [-1, 128]                 16,512
|    └─ReLU: 2-16                        [-1, 128]                 --
|    └─Linear: 2-17                      [-1, 2]                   258
==========================================================================================
Total params: 233,586
Trainable params: 233,586
Non-trainable params: 0
Total mult-adds (M): 7.45
==========================================================================================
Input size (MB): 0.00
Forward/backward pass size (MB): 0.27
Params size (MB): 0.89
Estimated Total Size (MB): 1.16
========================================================================================== 
==========================================================================================
Layer (type:depth-idx)                   Output Shape              Param #
==========================================================================================
├─Sequential: 1-1                        [-1, 16, 26, 26]          --
|    └─Conv2d: 2-1                       [-1, 16, 26, 26]          160
|    └─ReLU: 2-2                         [-1, 16, 26, 26]          --
├─Sequential: 1-2                        [-1, 16, 12, 12]          --
|    └─Conv2d: 2-3                       [-1, 16, 24, 24]          2,320
|    └─ReLU: 2-4                         [-1, 16, 24, 24]          --
|    └─MaxPool2d: 2-5                    [-1, 16, 12, 12]          --
├─Sequential: 1-3                        [-1, 64, 10, 10]          --
|    └─Conv2d: 2-6                       [-1, 64, 10, 10]          9,280
|    └─ReLU: 2-7                         [-1, 64, 10, 10]          --
├─Sequential: 1-4                        [-1, 64, 8, 8]            --
|    └─Conv2d: 2-8                       [-1, 64, 8, 8]            36,928
|    └─ReLU: 2-9                         [-1, 64, 8, 8]            --
├─Sequential: 1-5                        [-1, 64, 4, 4]            --
|    └─Conv2d: 2-10                      [-1, 64, 8, 8]            36,928
|    └─ReLU: 2-11                        [-1, 64, 8, 8]            --
|    └─MaxPool2d: 2-12                   [-1, 64, 4, 4]            --
├─Sequential: 1-6                        [-1, 2]                   --
|    └─Linear: 2-13                      [-1, 128]                 131,200
|    └─ReLU: 2-14                        [-1, 128]                 --
|    └─Linear: 2-15                      [-1, 128]                 16,512
|    └─ReLU: 2-16                        [-1, 128]                 --
|    └─Linear: 2-17                      [-1, 2]                   258
==========================================================================================
Total params: 233,586
Trainable params: 233,586
Non-trainable params: 0
Total mult-adds (M): 7.45
==========================================================================================
Input size (MB): 0.00
Forward/backward pass size (MB): 0.27
Params size (MB): 0.89
Estimated Total Size (MB): 1.16
========================================================================================== 
==========================================================================================
Layer (type:depth-idx)                   Output Shape              Param #
==========================================================================================
├─Sequential: 1-1                        [-1, 16, 26, 26]          --
|    └─Conv2d: 2-1                       [-1, 16, 26, 26]          160
|    └─ReLU: 2-2                         [-1, 16, 26, 26]          --
├─Sequential: 1-2                        [-1, 16, 12, 12]          --
|    └─Conv2d: 2-3                       [-1, 16, 24, 24]          2,320
|    └─ReLU: 2-4                         [-1, 16, 24, 24]          --
|    └─MaxPool2d: 2-5                    [-1, 16, 12, 12]          --
├─Sequential: 1-3                        [-1, 64, 10, 10]          --
|    └─Conv2d: 2-6                       [-1, 64, 10, 10]          9,280
|    └─ReLU: 2-7                         [-1, 64, 10, 10]          --
├─Sequential: 1-4                        [-1, 64, 8, 8]            --
|    └─Conv2d: 2-8                       [-1, 64, 8, 8]            36,928
|    └─ReLU: 2-9                         [-1, 64, 8, 8]            --
├─Sequential: 1-5                        [-1, 64, 4, 4]            --
|    └─Conv2d: 2-10                      [-1, 64, 8, 8]            36,928
|    └─ReLU: 2-11                        [-1, 64, 8, 8]            --
|    └─MaxPool2d: 2-12                   [-1, 64, 4, 4]            --
├─Sequential: 1-6                        [-1, 2]                   --
|    └─Linear: 2-13                      [-1, 128]                 131,200
|    └─ReLU: 2-14                        [-1, 128]                 --
|    └─Linear: 2-15                      [-1, 128]                 16,512
|    └─ReLU: 2-16                        [-1, 128]                 --
|    └─Linear: 2-17                      [-1, 2]                   258
==========================================================================================
Total params: 233,586
Trainable params: 233,586
Non-trainable params: 0
Total mult-adds (M): 7.45
==========================================================================================
Input size (MB): 0.00
Forward/backward pass size (MB): 0.27
Params size (MB): 0.89
Estimated Total Size (MB): 1.16
========================================================================================== 
==========================================================================================
Layer (type:depth-idx)                   Output Shape              Param #
==========================================================================================
├─Sequential: 1-1                        [-1, 16, 26, 26]          --
|    └─Conv2d: 2-1                       [-1, 16, 26, 26]          160
|    └─ReLU: 2-2                         [-1, 16, 26, 26]          --
├─Sequential: 1-2                        [-1, 16, 12, 12]          --
|    └─Conv2d: 2-3                       [-1, 16, 24, 24]          2,320
|    └─ReLU: 2-4                         [-1, 16, 24, 24]          --
|    └─MaxPool2d: 2-5                    [-1, 16, 12, 12]          --
├─Sequential: 1-3                        [-1, 64, 10, 10]          --
|    └─Conv2d: 2-6                       [-1, 64, 10, 10]          9,280
|    └─ReLU: 2-7                         [-1, 64, 10, 10]          --
├─Sequential: 1-4                        [-1, 64, 8, 8]            --
|    └─Conv2d: 2-8                       [-1, 64, 8, 8]            36,928
|    └─ReLU: 2-9                         [-1, 64, 8, 8]            --
├─Sequential: 1-5                        [-1, 64, 4, 4]            --
|    └─Conv2d: 2-10                      [-1, 64, 8, 8]            36,928
|    └─ReLU: 2-11                        [-1, 64, 8, 8]            --
|    └─MaxPool2d: 2-12                   [-1, 64, 4, 4]            --
├─Sequential: 1-6                        [-1, 2]                   --
|    └─Linear: 2-13                      [-1, 128]                 131,200
|    └─ReLU: 2-14                        [-1, 128]                 --
|    └─Linear: 2-15                      [-1, 128]                 16,512
|    └─ReLU: 2-16                        [-1, 128]                 --
|    └─Linear: 2-17                      [-1, 2]                   258
==========================================================================================
Total params: 233,586
Trainable params: 233,586
Non-trainable params: 0
Total mult-adds (M): 7.45
==========================================================================================
Input size (MB): 0.00
Forward/backward pass size (MB): 0.27
Params size (MB): 0.89
Estimated Total Size (MB): 1.16
========================================================================================== 
==========================================================================================
Layer (type:depth-idx)                   Output Shape              Param #
==========================================================================================
├─Sequential: 1-1                        [-1, 16, 26, 26]          --
|    └─Conv2d: 2-1                       [-1, 16, 26, 26]          160
|    └─ReLU: 2-2                         [-1, 16, 26, 26]          --
├─Sequential: 1-2                        [-1, 16, 12, 12]          --
|    └─Conv2d: 2-3                       [-1, 16, 24, 24]          2,320
|    └─ReLU: 2-4                         [-1, 16, 24, 24]          --
|    └─MaxPool2d: 2-5                    [-1, 16, 12, 12]          --
├─Sequential: 1-3                        [-1, 64, 10, 10]          --
|    └─Conv2d: 2-6                       [-1, 64, 10, 10]          9,280
|    └─ReLU: 2-7                         [-1, 64, 10, 10]          --
├─Sequential: 1-4                        [-1, 64, 8, 8]            --
|    └─Conv2d: 2-8                       [-1, 64, 8, 8]            36,928
|    └─ReLU: 2-9                         [-1, 64, 8, 8]            --
├─Sequential: 1-5                        [-1, 64, 4, 4]            --
|    └─Conv2d: 2-10                      [-1, 64, 8, 8]            36,928
|    └─ReLU: 2-11                        [-1, 64, 8, 8]            --
|    └─MaxPool2d: 2-12                   [-1, 64, 4, 4]            --
├─Sequential: 1-6                        [-1, 2]                   --
|    └─Linear: 2-13                      [-1, 128]                 131,200
|    └─ReLU: 2-14                        [-1, 128]                 --
|    └─Linear: 2-15                      [-1, 128]                 16,512
|    └─ReLU: 2-16                        [-1, 128]                 --
|    └─Linear: 2-17                      [-1, 2]                   258
==========================================================================================
Total params: 233,586
Trainable params: 233,586
Non-trainable params: 0
Total mult-adds (M): 7.45
==========================================================================================
Input size (MB): 0.00
Forward/backward pass size (MB): 0.27
Params size (MB): 0.89
Estimated Total Size (MB): 1.16
========================================================================================== 
==========================================================================================
Layer (type:depth-idx)                   Output Shape              Param #
==========================================================================================
├─Sequential: 1-1                        [-1, 16, 26, 26]          --
|    └─Conv2d: 2-1                       [-1, 16, 26, 26]          160
|    └─ReLU: 2-2                         [-1, 16, 26, 26]          --
├─Sequential: 1-2                        [-1, 16, 12, 12]          --
|    └─Conv2d: 2-3                       [-1, 16, 24, 24]          2,320
|    └─ReLU: 2-4                         [-1, 16, 24, 24]          --
|    └─MaxPool2d: 2-5                    [-1, 16, 12, 12]          --
├─Sequential: 1-3                        [-1, 64, 10, 10]          --
|    └─Conv2d: 2-6                       [-1, 64, 10, 10]          9,280
|    └─ReLU: 2-7                         [-1, 64, 10, 10]          --
├─Sequential: 1-4                        [-1, 64, 8, 8]            --
|    └─Conv2d: 2-8                       [-1, 64, 8, 8]            36,928
|    └─ReLU: 2-9                         [-1, 64, 8, 8]            --
├─Sequential: 1-5                        [-1, 64, 4, 4]            --
|    └─Conv2d: 2-10                      [-1, 64, 8, 8]            36,928
|    └─ReLU: 2-11                        [-1, 64, 8, 8]            --
|    └─MaxPool2d: 2-12                   [-1, 64, 4, 4]            --
├─Sequential: 1-6                        [-1, 2]                   --
|    └─Linear: 2-13                      [-1, 128]                 131,200
|    └─ReLU: 2-14                        [-1, 128]                 --
|    └─Linear: 2-15                      [-1, 128]                 16,512
|    └─ReLU: 2-16                        [-1, 128]                 --
|    └─Linear: 2-17                      [-1, 2]                   258
==========================================================================================
Total params: 233,586
Trainable params: 233,586
Non-trainable params: 0
Total mult-adds (M): 7.45
==========================================================================================
Input size (MB): 0.00
Forward/backward pass size (MB): 0.27
Params size (MB): 0.89
Estimated Total Size (MB): 1.16
========================================================================================== 
==========================================================================================
Layer (type:depth-idx)                   Output Shape              Param #
==========================================================================================
├─Sequential: 1-1                        [-1, 16, 26, 26]          --
|    └─Conv2d: 2-1                       [-1, 16, 26, 26]          160
|    └─ReLU: 2-2                         [-1, 16, 26, 26]          --
├─Sequential: 1-2                        [-1, 16, 12, 12]          --
|    └─Conv2d: 2-3                       [-1, 16, 24, 24]          2,320
|    └─ReLU: 2-4                         [-1, 16, 24, 24]          --
|    └─MaxPool2d: 2-5                    [-1, 16, 12, 12]          --
├─Sequential: 1-3                        [-1, 64, 10, 10]          --
|    └─Conv2d: 2-6                       [-1, 64, 10, 10]          9,280
|    └─ReLU: 2-7                         [-1, 64, 10, 10]          --
├─Sequential: 1-4                        [-1, 64, 8, 8]            --
|    └─Conv2d: 2-8                       [-1, 64, 8, 8]            36,928
|    └─ReLU: 2-9                         [-1, 64, 8, 8]            --
├─Sequential: 1-5                        [-1, 64, 4, 4]            --
|    └─Conv2d: 2-10                      [-1, 64, 8, 8]            36,928
|    └─ReLU: 2-11                        [-1, 64, 8, 8]            --
|    └─MaxPool2d: 2-12                   [-1, 64, 4, 4]            --
├─Sequential: 1-6                        [-1, 2]                   --
|    └─Linear: 2-13                      [-1, 128]                 131,200
|    └─ReLU: 2-14                        [-1, 128]                 --
|    └─Linear: 2-15                      [-1, 128]                 16,512
|    └─ReLU: 2-16                        [-1, 128]                 --
|    └─Linear: 2-17                      [-1, 2]                   258
==========================================================================================
Total params: 233,586
Trainable params: 233,586
Non-trainable params: 0
Total mult-adds (M): 7.45
==========================================================================================
Input size (MB): 0.00
Forward/backward pass size (MB): 0.27
Params size (MB): 0.89
Estimated Total Size (MB): 1.16
========================================================================================== 
==========================================================================================
Layer (type:depth-idx)                   Output Shape              Param #
==========================================================================================
├─Sequential: 1-1                        [-1, 16, 26, 26]          --
|    └─Conv2d: 2-1                       [-1, 16, 26, 26]          160
|    └─ReLU: 2-2                         [-1, 16, 26, 26]          --
├─Sequential: 1-2                        [-1, 16, 12, 12]          --
|    └─Conv2d: 2-3                       [-1, 16, 24, 24]          2,320
|    └─ReLU: 2-4                         [-1, 16, 24, 24]          --
|    └─MaxPool2d: 2-5                    [-1, 16, 12, 12]          --
├─Sequential: 1-3                        [-1, 64, 10, 10]          --
|    └─Conv2d: 2-6                       [-1, 64, 10, 10]          9,280
|    └─ReLU: 2-7                         [-1, 64, 10, 10]          --
├─Sequential: 1-4                        [-1, 64, 8, 8]            --
|    └─Conv2d: 2-8                       [-1, 64, 8, 8]            36,928
|    └─ReLU: 2-9                         [-1, 64, 8, 8]            --
├─Sequential: 1-5                        [-1, 64, 4, 4]            --
|    └─Conv2d: 2-10                      [-1, 64, 8, 8]            36,928
|    └─ReLU: 2-11                        [-1, 64, 8, 8]            --
|    └─MaxPool2d: 2-12                   [-1, 64, 4, 4]            --
├─Sequential: 1-6                        [-1, 2]                   --
|    └─Linear: 2-13                      [-1, 128]                 131,200
|    └─ReLU: 2-14                        [-1, 128]                 --
|    └─Linear: 2-15                      [-1, 128]                 16,512
|    └─ReLU: 2-16                        [-1, 128]                 --
|    └─Linear: 2-17                      [-1, 2]                   258
==========================================================================================
Total params: 233,586
Trainable params: 233,586
Non-trainable params: 0
Total mult-adds (M): 7.45
==========================================================================================
Input size (MB): 0.00
Forward/backward pass size (MB): 0.27
Params size (MB): 0.89
Estimated Total Size (MB): 1.16
========================================================================================== 
==========================================================================================
Layer (type:depth-idx)                   Output Shape              Param #
==========================================================================================
├─Sequential: 1-1                        [-1, 16, 26, 26]          --
|    └─Conv2d: 2-1                       [-1, 16, 26, 26]          160
|    └─ReLU: 2-2                         [-1, 16, 26, 26]          --
├─Sequential: 1-2                        [-1, 16, 12, 12]          --
|    └─Conv2d: 2-3                       [-1, 16, 24, 24]          2,320
|    └─ReLU: 2-4                         [-1, 16, 24, 24]          --
|    └─MaxPool2d: 2-5                    [-1, 16, 12, 12]          --
├─Sequential: 1-3                        [-1, 64, 10, 10]          --
|    └─Conv2d: 2-6                       [-1, 64, 10, 10]          9,280
|    └─ReLU: 2-7                         [-1, 64, 10, 10]          --
├─Sequential: 1-4                        [-1, 64, 8, 8]            --
|    └─Conv2d: 2-8                       [-1, 64, 8, 8]            36,928
|    └─ReLU: 2-9                         [-1, 64, 8, 8]            --
├─Sequential: 1-5                        [-1, 64, 4, 4]            --
|    └─Conv2d: 2-10                      [-1, 64, 8, 8]            36,928
|    └─ReLU: 2-11                        [-1, 64, 8, 8]            --
|    └─MaxPool2d: 2-12                   [-1, 64, 4, 4]            --
├─Sequential: 1-6                        [-1, 2]                   --
|    └─Linear: 2-13                      [-1, 128]                 131,200
|    └─ReLU: 2-14                        [-1, 128]                 --
|    └─Linear: 2-15                      [-1, 128]                 16,512
|    └─ReLU: 2-16                        [-1, 128]                 --
|    └─Linear: 2-17                      [-1, 2]                   258
==========================================================================================
Total params: 233,586
Trainable params: 233,586
Non-trainable params: 0
Total mult-adds (M): 7.45
==========================================================================================
Input size (MB): 0.00
Forward/backward pass size (MB): 0.27
Params size (MB): 0.89
Estimated Total Size (MB): 1.16
========================================================================================== 
==========================================================================================
Layer (type:depth-idx)                   Output Shape              Param #
==========================================================================================
├─Sequential: 1-1                        [-1, 16, 26, 26]          --
|    └─Conv2d: 2-1                       [-1, 16, 26, 26]          160
|    └─ReLU: 2-2                         [-1, 16, 26, 26]          --
├─Sequential: 1-2                        [-1, 16, 12, 12]          --
|    └─Conv2d: 2-3                       [-1, 16, 24, 24]          2,320
|    └─ReLU: 2-4                         [-1, 16, 24, 24]          --
|    └─MaxPool2d: 2-5                    [-1, 16, 12, 12]          --
├─Sequential: 1-3                        [-1, 64, 10, 10]          --
|    └─Conv2d: 2-6                       [-1, 64, 10, 10]          9,280
|    └─ReLU: 2-7                         [-1, 64, 10, 10]          --
├─Sequential: 1-4                        [-1, 64, 8, 8]            --
|    └─Conv2d: 2-8                       [-1, 64, 8, 8]            36,928
|    └─ReLU: 2-9                         [-1, 64, 8, 8]            --
├─Sequential: 1-5                        [-1, 64, 4, 4]            --
|    └─Conv2d: 2-10                      [-1, 64, 8, 8]            36,928
|    └─ReLU: 2-11                        [-1, 64, 8, 8]            --
|    └─MaxPool2d: 2-12                   [-1, 64, 4, 4]            --
├─Sequential: 1-6                        [-1, 2]                   --
|    └─Linear: 2-13                      [-1, 128]                 131,200
|    └─ReLU: 2-14                        [-1, 128]                 --
|    └─Linear: 2-15                      [-1, 128]                 16,512
|    └─ReLU: 2-16                        [-1, 128]                 --
|    └─Linear: 2-17                      [-1, 2]                   258
==========================================================================================
Total params: 233,586
Trainable params: 233,586
Non-trainable params: 0
Total mult-adds (M): 7.45
==========================================================================================
Input size (MB): 0.00
Forward/backward pass size (MB): 0.27
Params size (MB): 0.89
Estimated Total Size (MB): 1.16
========================================================================================== 
==========================================================================================
Layer (type:depth-idx)                   Output Shape              Param #
==========================================================================================
├─Sequential: 1-1                        [-1, 16, 26, 26]          --
|    └─Conv2d: 2-1                       [-1, 16, 26, 26]          160
|    └─ReLU: 2-2                         [-1, 16, 26, 26]          --
├─Sequential: 1-2                        [-1, 16, 12, 12]          --
|    └─Conv2d: 2-3                       [-1, 16, 24, 24]          2,320
|    └─ReLU: 2-4                         [-1, 16, 24, 24]          --
|    └─MaxPool2d: 2-5                    [-1, 16, 12, 12]          --
├─Sequential: 1-3                        [-1, 64, 10, 10]          --
|    └─Conv2d: 2-6                       [-1, 64, 10, 10]          9,280
|    └─ReLU: 2-7                         [-1, 64, 10, 10]          --
├─Sequential: 1-4                        [-1, 64, 8, 8]            --
|    └─Conv2d: 2-8                       [-1, 64, 8, 8]            36,928
|    └─ReLU: 2-9                         [-1, 64, 8, 8]            --
├─Sequential: 1-5                        [-1, 64, 4, 4]            --
|    └─Conv2d: 2-10                      [-1, 64, 8, 8]            36,928
|    └─ReLU: 2-11                        [-1, 64, 8, 8]            --
|    └─MaxPool2d: 2-12                   [-1, 64, 4, 4]            --
├─Sequential: 1-6                        [-1, 2]                   --
|    └─Linear: 2-13                      [-1, 128]                 131,200
|    └─ReLU: 2-14                        [-1, 128]                 --
|    └─Linear: 2-15                      [-1, 128]                 16,512
|    └─ReLU: 2-16                        [-1, 128]                 --
|    └─Linear: 2-17                      [-1, 2]                   258
==========================================================================================
Total params: 233,586
Trainable params: 233,586
Non-trainable params: 0
Total mult-adds (M): 7.45
==========================================================================================
Input size (MB): 0.00
Forward/backward pass size (MB): 0.27
Params size (MB): 0.89
Estimated Total Size (MB): 1.16
========================================================================================== 
==========================================================================================
Layer (type:depth-idx)                   Output Shape              Param #
==========================================================================================
├─Sequential: 1-1                        [-1, 16, 26, 26]          --
|    └─Conv2d: 2-1                       [-1, 16, 26, 26]          160
|    └─ReLU: 2-2                         [-1, 16, 26, 26]          --
├─Sequential: 1-2                        [-1, 16, 12, 12]          --
|    └─Conv2d: 2-3                       [-1, 16, 24, 24]          2,320
|    └─ReLU: 2-4                         [-1, 16, 24, 24]          --
|    └─MaxPool2d: 2-5                    [-1, 16, 12, 12]          --
├─Sequential: 1-3                        [-1, 64, 10, 10]          --
|    └─Conv2d: 2-6                       [-1, 64, 10, 10]          9,280
|    └─ReLU: 2-7                         [-1, 64, 10, 10]          --
├─Sequential: 1-4                        [-1, 64, 8, 8]            --
|    └─Conv2d: 2-8                       [-1, 64, 8, 8]            36,928
|    └─ReLU: 2-9                         [-1, 64, 8, 8]            --
├─Sequential: 1-5                        [-1, 64, 4, 4]            --
|    └─Conv2d: 2-10                      [-1, 64, 8, 8]            36,928
|    └─ReLU: 2-11                        [-1, 64, 8, 8]            --
|    └─MaxPool2d: 2-12                   [-1, 64, 4, 4]            --
├─Sequential: 1-6                        [-1, 2]                   --
|    └─Linear: 2-13                      [-1, 128]                 131,200
|    └─ReLU: 2-14                        [-1, 128]                 --
|    └─Linear: 2-15                      [-1, 128]                 16,512
|    └─ReLU: 2-16                        [-1, 128]                 --
|    └─Linear: 2-17                      [-1, 2]                   258
==========================================================================================
Total params: 233,586
Trainable params: 233,586
Non-trainable params: 0
Total mult-adds (M): 7.45
==========================================================================================
Input size (MB): 0.00
Forward/backward pass size (MB): 0.27
Params size (MB): 0.89
Estimated Total Size (MB): 1.16
========================================================================================== 
==========================================================================================
Layer (type:depth-idx)                   Output Shape              Param #
==========================================================================================
├─Sequential: 1-1                        [-1, 16, 26, 26]          --
|    └─Conv2d: 2-1                       [-1, 16, 26, 26]          160
|    └─ReLU: 2-2                         [-1, 16, 26, 26]          --
├─Sequential: 1-2                        [-1, 16, 12, 12]          --
|    └─Conv2d: 2-3                       [-1, 16, 24, 24]          2,320
|    └─ReLU: 2-4                         [-1, 16, 24, 24]          --
|    └─MaxPool2d: 2-5                    [-1, 16, 12, 12]          --
├─Sequential: 1-3                        [-1, 64, 10, 10]          --
|    └─Conv2d: 2-6                       [-1, 64, 10, 10]          9,280
|    └─ReLU: 2-7                         [-1, 64, 10, 10]          --
├─Sequential: 1-4                        [-1, 64, 8, 8]            --
|    └─Conv2d: 2-8                       [-1, 64, 8, 8]            36,928
|    └─ReLU: 2-9                         [-1, 64, 8, 8]            --
├─Sequential: 1-5                        [-1, 64, 4, 4]            --
|    └─Conv2d: 2-10                      [-1, 64, 8, 8]            36,928
|    └─ReLU: 2-11                        [-1, 64, 8, 8]            --
|    └─MaxPool2d: 2-12                   [-1, 64, 4, 4]            --
├─Sequential: 1-6                        [-1, 2]                   --
|    └─Linear: 2-13                      [-1, 128]                 131,200
|    └─ReLU: 2-14                        [-1, 128]                 --
|    └─Linear: 2-15                      [-1, 128]                 16,512
|    └─ReLU: 2-16                        [-1, 128]                 --
|    └─Linear: 2-17                      [-1, 2]                   258
==========================================================================================
Total params: 233,586
Trainable params: 233,586
Non-trainable params: 0
Total mult-adds (M): 7.45
==========================================================================================
Input size (MB): 0.00
Forward/backward pass size (MB): 0.27
Params size (MB): 0.89
Estimated Total Size (MB): 1.16
========================================================================================== 
==========================================================================================
Layer (type:depth-idx)                   Output Shape              Param #
==========================================================================================
├─Sequential: 1-1                        [-1, 16, 26, 26]          --
|    └─Conv2d: 2-1                       [-1, 16, 26, 26]          160
|    └─ReLU: 2-2                         [-1, 16, 26, 26]          --
├─Sequential: 1-2                        [-1, 16, 12, 12]          --
|    └─Conv2d: 2-3                       [-1, 16, 24, 24]          2,320
|    └─ReLU: 2-4                         [-1, 16, 24, 24]          --
|    └─MaxPool2d: 2-5                    [-1, 16, 12, 12]          --
├─Sequential: 1-3                        [-1, 64, 10, 10]          --
|    └─Conv2d: 2-6                       [-1, 64, 10, 10]          9,280
|    └─ReLU: 2-7                         [-1, 64, 10, 10]          --
├─Sequential: 1-4                        [-1, 64, 8, 8]            --
|    └─Conv2d: 2-8                       [-1, 64, 8, 8]            36,928
|    └─ReLU: 2-9                         [-1, 64, 8, 8]            --
├─Sequential: 1-5                        [-1, 64, 4, 4]            --
|    └─Conv2d: 2-10                      [-1, 64, 8, 8]            36,928
|    └─ReLU: 2-11                        [-1, 64, 8, 8]            --
|    └─MaxPool2d: 2-12                   [-1, 64, 4, 4]            --
├─Sequential: 1-6                        [-1, 2]                   --
|    └─Linear: 2-13                      [-1, 128]                 131,200
|    └─ReLU: 2-14                        [-1, 128]                 --
|    └─Linear: 2-15                      [-1, 128]                 16,512
|    └─ReLU: 2-16                        [-1, 128]                 --
|    └─Linear: 2-17                      [-1, 2]                   258
==========================================================================================
Total params: 233,586
Trainable params: 233,586
Non-trainable params: 0
Total mult-adds (M): 7.45
==========================================================================================
Input size (MB): 0.00
Forward/backward pass size (MB): 0.27
Params size (MB): 0.89
Estimated Total Size (MB): 1.16
========================================================================================== 
==========================================================================================
Layer (type:depth-idx)                   Output Shape              Param #
==========================================================================================
├─Sequential: 1-1                        [-1, 16, 26, 26]          --
|    └─Conv2d: 2-1                       [-1, 16, 26, 26]          160
|    └─ReLU: 2-2                         [-1, 16, 26, 26]          --
├─Sequential: 1-2                        [-1, 16, 12, 12]          --
|    └─Conv2d: 2-3                       [-1, 16, 24, 24]          2,320
|    └─ReLU: 2-4                         [-1, 16, 24, 24]          --
|    └─MaxPool2d: 2-5                    [-1, 16, 12, 12]          --
├─Sequential: 1-3                        [-1, 64, 10, 10]          --
|    └─Conv2d: 2-6                       [-1, 64, 10, 10]          9,280
|    └─ReLU: 2-7                         [-1, 64, 10, 10]          --
├─Sequential: 1-4                        [-1, 64, 8, 8]            --
|    └─Conv2d: 2-8                       [-1, 64, 8, 8]            36,928
|    └─ReLU: 2-9                         [-1, 64, 8, 8]            --
├─Sequential: 1-5                        [-1, 64, 4, 4]            --
|    └─Conv2d: 2-10                      [-1, 64, 8, 8]            36,928
|    └─ReLU: 2-11                        [-1, 64, 8, 8]            --
|    └─MaxPool2d: 2-12                   [-1, 64, 4, 4]            --
├─Sequential: 1-6                        [-1, 2]                   --
|    └─Linear: 2-13                      [-1, 128]                 131,200
|    └─ReLU: 2-14                        [-1, 128]                 --
|    └─Linear: 2-15                      [-1, 128]                 16,512
|    └─ReLU: 2-16                        [-1, 128]                 --
|    └─Linear: 2-17                      [-1, 2]                   258
==========================================================================================
Total params: 233,586
Trainable params: 233,586
Non-trainable params: 0
Total mult-adds (M): 7.45
==========================================================================================
Input size (MB): 0.00
Forward/backward pass size (MB): 0.27
Params size (MB): 0.89
Estimated Total Size (MB): 1.16
========================================================================================== 
==========================================================================================
Layer (type:depth-idx)                   Output Shape              Param #
==========================================================================================
├─Sequential: 1-1                        [-1, 16, 26, 26]          --
|    └─Conv2d: 2-1                       [-1, 16, 26, 26]          160
|    └─ReLU: 2-2                         [-1, 16, 26, 26]          --
├─Sequential: 1-2                        [-1, 16, 12, 12]          --
|    └─Conv2d: 2-3                       [-1, 16, 24, 24]          2,320
|    └─ReLU: 2-4                         [-1, 16, 24, 24]          --
|    └─MaxPool2d: 2-5                    [-1, 16, 12, 12]          --
├─Sequential: 1-3                        [-1, 64, 10, 10]          --
|    └─Conv2d: 2-6                       [-1, 64, 10, 10]          9,280
|    └─ReLU: 2-7                         [-1, 64, 10, 10]          --
├─Sequential: 1-4                        [-1, 64, 8, 8]            --
|    └─Conv2d: 2-8                       [-1, 64, 8, 8]            36,928
|    └─ReLU: 2-9                         [-1, 64, 8, 8]            --
├─Sequential: 1-5                        [-1, 64, 4, 4]            --
|    └─Conv2d: 2-10                      [-1, 64, 8, 8]            36,928
|    └─ReLU: 2-11                        [-1, 64, 8, 8]            --
|    └─MaxPool2d: 2-12                   [-1, 64, 4, 4]            --
├─Sequential: 1-6                        [-1, 2]                   --
|    └─Linear: 2-13                      [-1, 128]                 131,200
|    └─ReLU: 2-14                        [-1, 128]                 --
|    └─Linear: 2-15                      [-1, 128]                 16,512
|    └─ReLU: 2-16                        [-1, 128]                 --
|    └─Linear: 2-17                      [-1, 2]                   258
==========================================================================================
Total params: 233,586
Trainable params: 233,586
Non-trainable params: 0
Total mult-adds (M): 7.45
==========================================================================================
Input size (MB): 0.00
Forward/backward pass size (MB): 0.27
Params size (MB): 0.89
Estimated Total Size (MB): 1.16
========================================================================================== 
==========================================================================================
Layer (type:depth-idx)                   Output Shape              Param #
==========================================================================================
├─Sequential: 1-1                        [-1, 16, 26, 26]          --
|    └─Conv2d: 2-1                       [-1, 16, 26, 26]          160
|    └─ReLU: 2-2                         [-1, 16, 26, 26]          --
├─Sequential: 1-2                        [-1, 16, 12, 12]          --
|    └─Conv2d: 2-3                       [-1, 16, 24, 24]          2,320
|    └─ReLU: 2-4                         [-1, 16, 24, 24]          --
|    └─MaxPool2d: 2-5                    [-1, 16, 12, 12]          --
├─Sequential: 1-3                        [-1, 64, 10, 10]          --
|    └─Conv2d: 2-6                       [-1, 64, 10, 10]          9,280
|    └─ReLU: 2-7                         [-1, 64, 10, 10]          --
├─Sequential: 1-4                        [-1, 64, 8, 8]            --
|    └─Conv2d: 2-8                       [-1, 64, 8, 8]            36,928
|    └─ReLU: 2-9                         [-1, 64, 8, 8]            --
├─Sequential: 1-5                        [-1, 64, 4, 4]            --
|    └─Conv2d: 2-10                      [-1, 64, 8, 8]            36,928
|    └─ReLU: 2-11                        [-1, 64, 8, 8]            --
|    └─MaxPool2d: 2-12                   [-1, 64, 4, 4]            --
├─Sequential: 1-6                        [-1, 2]                   --
|    └─Linear: 2-13                      [-1, 128]                 131,200
|    └─ReLU: 2-14                        [-1, 128]                 --
|    └─Linear: 2-15                      [-1, 128]                 16,512
|    └─ReLU: 2-16                        [-1, 128]                 --
|    └─Linear: 2-17                      [-1, 2]                   258
==========================================================================================
Total params: 233,586
Trainable params: 233,586
Non-trainable params: 0
Total mult-adds (M): 7.45
==========================================================================================
Input size (MB): 0.00
Forward/backward pass size (MB): 0.27
Params size (MB): 0.89
Estimated Total Size (MB): 1.16
========================================================================================== 
==========================================================================================
Layer (type:depth-idx)                   Output Shape              Param #
==========================================================================================
├─Sequential: 1-1                        [-1, 16, 26, 26]          --
|    └─Conv2d: 2-1                       [-1, 16, 26, 26]          160
|    └─ReLU: 2-2                         [-1, 16, 26, 26]          --
├─Sequential: 1-2                        [-1, 16, 12, 12]          --
|    └─Conv2d: 2-3                       [-1, 16, 24, 24]          2,320
|    └─ReLU: 2-4                         [-1, 16, 24, 24]          --
|    └─MaxPool2d: 2-5                    [-1, 16, 12, 12]          --
├─Sequential: 1-3                        [-1, 64, 10, 10]          --
|    └─Conv2d: 2-6                       [-1, 64, 10, 10]          9,280
|    └─ReLU: 2-7                         [-1, 64, 10, 10]          --
├─Sequential: 1-4                        [-1, 64, 8, 8]            --
|    └─Conv2d: 2-8                       [-1, 64, 8, 8]            36,928
|    └─ReLU: 2-9                         [-1, 64, 8, 8]            --
├─Sequential: 1-5                        [-1, 64, 4, 4]            --
|    └─Conv2d: 2-10                      [-1, 64, 8, 8]            36,928
|    └─ReLU: 2-11                        [-1, 64, 8, 8]            --
|    └─MaxPool2d: 2-12                   [-1, 64, 4, 4]            --
├─Sequential: 1-6                        [-1, 2]                   --
|    └─Linear: 2-13                      [-1, 128]                 131,200
|    └─ReLU: 2-14                        [-1, 128]                 --
|    └─Linear: 2-15                      [-1, 128]                 16,512
|    └─ReLU: 2-16                        [-1, 128]                 --
|    └─Linear: 2-17                      [-1, 2]                   258
==========================================================================================
Total params: 233,586
Trainable params: 233,586
Non-trainable params: 0
Total mult-adds (M): 7.45
==========================================================================================
Input size (MB): 0.00
Forward/backward pass size (MB): 0.27
Params size (MB): 0.89
Estimated Total Size (MB): 1.16
========================================================================================== 
==========================================================================================
Layer (type:depth-idx)                   Output Shape              Param #
==========================================================================================
├─Sequential: 1-1                        [-1, 16, 26, 26]          --
|    └─Conv2d: 2-1                       [-1, 16, 26, 26]          160
|    └─ReLU: 2-2                         [-1, 16, 26, 26]          --
├─Sequential: 1-2                        [-1, 16, 12, 12]          --
|    └─Conv2d: 2-3                       [-1, 16, 24, 24]          2,320
|    └─ReLU: 2-4                         [-1, 16, 24, 24]          --
|    └─MaxPool2d: 2-5                    [-1, 16, 12, 12]          --
├─Sequential: 1-3                        [-1, 64, 10, 10]          --
|    └─Conv2d: 2-6                       [-1, 64, 10, 10]          9,280
|    └─ReLU: 2-7                         [-1, 64, 10, 10]          --
├─Sequential: 1-4                        [-1, 64, 8, 8]            --
|    └─Conv2d: 2-8                       [-1, 64, 8, 8]            36,928
|    └─ReLU: 2-9                         [-1, 64, 8, 8]            --
├─Sequential: 1-5                        [-1, 64, 4, 4]            --
|    └─Conv2d: 2-10                      [-1, 64, 8, 8]            36,928
|    └─ReLU: 2-11                        [-1, 64, 8, 8]            --
|    └─MaxPool2d: 2-12                   [-1, 64, 4, 4]            --
├─Sequential: 1-6                        [-1, 2]                   --
|    └─Linear: 2-13                      [-1, 128]                 131,200
|    └─ReLU: 2-14                        [-1, 128]                 --
|    └─Linear: 2-15                      [-1, 128]                 16,512
|    └─ReLU: 2-16                        [-1, 128]                 --
|    └─Linear: 2-17                      [-1, 2]                   258
==========================================================================================
Total params: 233,586
Trainable params: 233,586
Non-trainable params: 0
Total mult-adds (M): 7.45
==========================================================================================
Input size (MB): 0.00
Forward/backward pass size (MB): 0.27
Params size (MB): 0.89
Estimated Total Size (MB): 1.16
========================================================================================== 
==========================================================================================
Layer (type:depth-idx)                   Output Shape              Param #
==========================================================================================
├─Sequential: 1-1                        [-1, 16, 26, 26]          --
|    └─Conv2d: 2-1                       [-1, 16, 26, 26]          160
|    └─ReLU: 2-2                         [-1, 16, 26, 26]          --
├─Sequential: 1-2                        [-1, 16, 12, 12]          --
|    └─Conv2d: 2-3                       [-1, 16, 24, 24]          2,320
|    └─ReLU: 2-4                         [-1, 16, 24, 24]          --
|    └─MaxPool2d: 2-5                    [-1, 16, 12, 12]          --
├─Sequential: 1-3                        [-1, 64, 10, 10]          --
|    └─Conv2d: 2-6                       [-1, 64, 10, 10]          9,280
|    └─ReLU: 2-7                         [-1, 64, 10, 10]          --
├─Sequential: 1-4                        [-1, 64, 8, 8]            --
|    └─Conv2d: 2-8                       [-1, 64, 8, 8]            36,928
|    └─ReLU: 2-9                         [-1, 64, 8, 8]            --
├─Sequential: 1-5                        [-1, 64, 4, 4]            --
|    └─Conv2d: 2-10                      [-1, 64, 8, 8]            36,928
|    └─ReLU: 2-11                        [-1, 64, 8, 8]            --
|    └─MaxPool2d: 2-12                   [-1, 64, 4, 4]            --
├─Sequential: 1-6                        [-1, 2]                   --
|    └─Linear: 2-13                      [-1, 128]                 131,200
|    └─ReLU: 2-14                        [-1, 128]                 --
|    └─Linear: 2-15                      [-1, 128]                 16,512
|    └─ReLU: 2-16                        [-1, 128]                 --
|    └─Linear: 2-17                      [-1, 2]                   258
==========================================================================================
Total params: 233,586
Trainable params: 233,586
Non-trainable params: 0
Total mult-adds (M): 7.45
==========================================================================================
Input size (MB): 0.00
Forward/backward pass size (MB): 0.27
Params size (MB): 0.89
Estimated Total Size (MB): 1.16
========================================================================================== 
==========================================================================================
Layer (type:depth-idx)                   Output Shape              Param #
==========================================================================================
├─Sequential: 1-1                        [-1, 16, 26, 26]          --
|    └─Conv2d: 2-1                       [-1, 16, 26, 26]          160
|    └─ReLU: 2-2                         [-1, 16, 26, 26]          --
├─Sequential: 1-2                        [-1, 16, 12, 12]          --
|    └─Conv2d: 2-3                       [-1, 16, 24, 24]          2,320
|    └─ReLU: 2-4                         [-1, 16, 24, 24]          --
|    └─MaxPool2d: 2-5                    [-1, 16, 12, 12]          --
├─Sequential: 1-3                        [-1, 64, 10, 10]          --
|    └─Conv2d: 2-6                       [-1, 64, 10, 10]          9,280
|    └─ReLU: 2-7                         [-1, 64, 10, 10]          --
├─Sequential: 1-4                        [-1, 64, 8, 8]            --
|    └─Conv2d: 2-8                       [-1, 64, 8, 8]            36,928
|    └─ReLU: 2-9                         [-1, 64, 8, 8]            --
├─Sequential: 1-5                        [-1, 64, 4, 4]            --
|    └─Conv2d: 2-10                      [-1, 64, 8, 8]            36,928
|    └─ReLU: 2-11                        [-1, 64, 8, 8]            --
|    └─MaxPool2d: 2-12                   [-1, 64, 4, 4]            --
├─Sequential: 1-6                        [-1, 2]                   --
|    └─Linear: 2-13                      [-1, 128]                 131,200
|    └─ReLU: 2-14                        [-1, 128]                 --
|    └─Linear: 2-15                      [-1, 128]                 16,512
|    └─ReLU: 2-16                        [-1, 128]                 --
|    └─Linear: 2-17                      [-1, 2]                   258
==========================================================================================
Total params: 233,586
Trainable params: 233,586
Non-trainable params: 0
Total mult-adds (M): 7.45
==========================================================================================
Input size (MB): 0.00
Forward/backward pass size (MB): 0.27
Params size (MB): 0.89
Estimated Total Size (MB): 1.16
========================================================================================== 
==========================================================================================
Layer (type:depth-idx)                   Output Shape              Param #
==========================================================================================
├─Sequential: 1-1                        [-1, 16, 26, 26]          --
|    └─Conv2d: 2-1                       [-1, 16, 26, 26]          160
|    └─ReLU: 2-2                         [-1, 16, 26, 26]          --
├─Sequential: 1-2                        [-1, 16, 12, 12]          --
|    └─Conv2d: 2-3                       [-1, 16, 24, 24]          2,320
|    └─ReLU: 2-4                         [-1, 16, 24, 24]          --
|    └─MaxPool2d: 2-5                    [-1, 16, 12, 12]          --
├─Sequential: 1-3                        [-1, 64, 10, 10]          --
|    └─Conv2d: 2-6                       [-1, 64, 10, 10]          9,280
|    └─ReLU: 2-7                         [-1, 64, 10, 10]          --
├─Sequential: 1-4                        [-1, 64, 8, 8]            --
|    └─Conv2d: 2-8                       [-1, 64, 8, 8]            36,928
|    └─ReLU: 2-9                         [-1, 64, 8, 8]            --
├─Sequential: 1-5                        [-1, 64, 4, 4]            --
|    └─Conv2d: 2-10                      [-1, 64, 8, 8]            36,928
|    └─ReLU: 2-11                        [-1, 64, 8, 8]            --
|    └─MaxPool2d: 2-12                   [-1, 64, 4, 4]            --
├─Sequential: 1-6                        [-1, 2]                   --
|    └─Linear: 2-13                      [-1, 128]                 131,200
|    └─ReLU: 2-14                        [-1, 128]                 --
|    └─Linear: 2-15                      [-1, 128]                 16,512
|    └─ReLU: 2-16                        [-1, 128]                 --
|    └─Linear: 2-17                      [-1, 2]                   258
==========================================================================================
Total params: 233,586
Trainable params: 233,586
Non-trainable params: 0
Total mult-adds (M): 7.45
==========================================================================================
Input size (MB): 0.00
Forward/backward pass size (MB): 0.27
Params size (MB): 0.89
Estimated Total Size (MB): 1.16
========================================================================================== 
==========================================================================================
Layer (type:depth-idx)                   Output Shape              Param #
==========================================================================================
├─Sequential: 1-1                        [-1, 16, 26, 26]          --
|    └─Conv2d: 2-1                       [-1, 16, 26, 26]          160
|    └─ReLU: 2-2                         [-1, 16, 26, 26]          --
├─Sequential: 1-2                        [-1, 16, 12, 12]          --
|    └─Conv2d: 2-3                       [-1, 16, 24, 24]          2,320
|    └─ReLU: 2-4                         [-1, 16, 24, 24]          --
|    └─MaxPool2d: 2-5                    [-1, 16, 12, 12]          --
├─Sequential: 1-3                        [-1, 64, 10, 10]          --
|    └─Conv2d: 2-6                       [-1, 64, 10, 10]          9,280
|    └─ReLU: 2-7                         [-1, 64, 10, 10]          --
├─Sequential: 1-4                        [-1, 64, 8, 8]            --
|    └─Conv2d: 2-8                       [-1, 64, 8, 8]            36,928
|    └─ReLU: 2-9                         [-1, 64, 8, 8]            --
├─Sequential: 1-5                        [-1, 64, 4, 4]            --
|    └─Conv2d: 2-10                      [-1, 64, 8, 8]            36,928
|    └─ReLU: 2-11                        [-1, 64, 8, 8]            --
|    └─MaxPool2d: 2-12                   [-1, 64, 4, 4]            --
├─Sequential: 1-6                        [-1, 2]                   --
|    └─Linear: 2-13                      [-1, 128]                 131,200
|    └─ReLU: 2-14                        [-1, 128]                 --
|    └─Linear: 2-15                      [-1, 128]                 16,512
|    └─ReLU: 2-16                        [-1, 128]                 --
|    └─Linear: 2-17                      [-1, 2]                   258
==========================================================================================
Total params: 233,586
Trainable params: 233,586
Non-trainable params: 0
Total mult-adds (M): 7.45
==========================================================================================
Input size (MB): 0.00
Forward/backward pass size (MB): 0.27
Params size (MB): 0.89
Estimated Total Size (MB): 1.16
========================================================================================== 
==========================================================================================
Layer (type:depth-idx)                   Output Shape              Param #
==========================================================================================
├─Sequential: 1-1                        [-1, 16, 26, 26]          --
|    └─Conv2d: 2-1                       [-1, 16, 26, 26]          160
|    └─ReLU: 2-2                         [-1, 16, 26, 26]          --
├─Sequential: 1-2                        [-1, 16, 12, 12]          --
|    └─Conv2d: 2-3                       [-1, 16, 24, 24]          2,320
|    └─ReLU: 2-4                         [-1, 16, 24, 24]          --
|    └─MaxPool2d: 2-5                    [-1, 16, 12, 12]          --
├─Sequential: 1-3                        [-1, 64, 10, 10]          --
|    └─Conv2d: 2-6                       [-1, 64, 10, 10]          9,280
|    └─ReLU: 2-7                         [-1, 64, 10, 10]          --
├─Sequential: 1-4                        [-1, 64, 8, 8]            --
|    └─Conv2d: 2-8                       [-1, 64, 8, 8]            36,928
|    └─ReLU: 2-9                         [-1, 64, 8, 8]            --
├─Sequential: 1-5                        [-1, 64, 4, 4]            --
|    └─Conv2d: 2-10                      [-1, 64, 8, 8]            36,928
|    └─ReLU: 2-11                        [-1, 64, 8, 8]            --
|    └─MaxPool2d: 2-12                   [-1, 64, 4, 4]            --
├─Sequential: 1-6                        [-1, 2]                   --
|    └─Linear: 2-13                      [-1, 128]                 131,200
|    └─ReLU: 2-14                        [-1, 128]                 --
|    └─Linear: 2-15                      [-1, 128]                 16,512
|    └─ReLU: 2-16                        [-1, 128]                 --
|    └─Linear: 2-17                      [-1, 2]                   258
==========================================================================================
Total params: 233,586
Trainable params: 233,586
Non-trainable params: 0
Total mult-adds (M): 7.45
==========================================================================================
Input size (MB): 0.00
Forward/backward pass size (MB): 0.27
Params size (MB): 0.89
Estimated Total Size (MB): 1.16
========================================================================================== 
==========================================================================================
Layer (type:depth-idx)                   Output Shape              Param #
==========================================================================================
├─Sequential: 1-1                        [-1, 16, 26, 26]          --
|    └─Conv2d: 2-1                       [-1, 16, 26, 26]          160
|    └─ReLU: 2-2                         [-1, 16, 26, 26]          --
├─Sequential: 1-2                        [-1, 16, 12, 12]          --
|    └─Conv2d: 2-3                       [-1, 16, 24, 24]          2,320
|    └─ReLU: 2-4                         [-1, 16, 24, 24]          --
|    └─MaxPool2d: 2-5                    [-1, 16, 12, 12]          --
├─Sequential: 1-3                        [-1, 64, 10, 10]          --
|    └─Conv2d: 2-6                       [-1, 64, 10, 10]          9,280
|    └─ReLU: 2-7                         [-1, 64, 10, 10]          --
├─Sequential: 1-4                        [-1, 64, 8, 8]            --
|    └─Conv2d: 2-8                       [-1, 64, 8, 8]            36,928
|    └─ReLU: 2-9                         [-1, 64, 8, 8]            --
├─Sequential: 1-5                        [-1, 64, 4, 4]            --
|    └─Conv2d: 2-10                      [-1, 64, 8, 8]            36,928
|    └─ReLU: 2-11                        [-1, 64, 8, 8]            --
|    └─MaxPool2d: 2-12                   [-1, 64, 4, 4]            --
├─Sequential: 1-6                        [-1, 2]                   --
|    └─Linear: 2-13                      [-1, 128]                 131,200
|    └─ReLU: 2-14                        [-1, 128]                 --
|    └─Linear: 2-15                      [-1, 128]                 16,512
|    └─ReLU: 2-16                        [-1, 128]                 --
|    └─Linear: 2-17                      [-1, 2]                   258
==========================================================================================
Total params: 233,586
Trainable params: 233,586
Non-trainable params: 0
Total mult-adds (M): 7.45
==========================================================================================
Input size (MB): 0.00
Forward/backward pass size (MB): 0.27
Params size (MB): 0.89
Estimated Total Size (MB): 1.16
========================================================================================== 
==========================================================================================
Layer (type:depth-idx)                   Output Shape              Param #
==========================================================================================
├─Sequential: 1-1                        [-1, 16, 26, 26]          --
|    └─Conv2d: 2-1                       [-1, 16, 26, 26]          160
|    └─ReLU: 2-2                         [-1, 16, 26, 26]          --
├─Sequential: 1-2                        [-1, 16, 12, 12]          --
|    └─Conv2d: 2-3                       [-1, 16, 24, 24]          2,320
|    └─ReLU: 2-4                         [-1, 16, 24, 24]          --
|    └─MaxPool2d: 2-5                    [-1, 16, 12, 12]          --
├─Sequential: 1-3                        [-1, 64, 10, 10]          --
|    └─Conv2d: 2-6                       [-1, 64, 10, 10]          9,280
|    └─ReLU: 2-7                         [-1, 64, 10, 10]          --
├─Sequential: 1-4                        [-1, 64, 8, 8]            --
|    └─Conv2d: 2-8                       [-1, 64, 8, 8]            36,928
|    └─ReLU: 2-9                         [-1, 64, 8, 8]            --
├─Sequential: 1-5                        [-1, 64, 4, 4]            --
|    └─Conv2d: 2-10                      [-1, 64, 8, 8]            36,928
|    └─ReLU: 2-11                        [-1, 64, 8, 8]            --
|    └─MaxPool2d: 2-12                   [-1, 64, 4, 4]            --
├─Sequential: 1-6                        [-1, 2]                   --
|    └─Linear: 2-13                      [-1, 128]                 131,200
|    └─ReLU: 2-14                        [-1, 128]                 --
|    └─Linear: 2-15                      [-1, 128]                 16,512
|    └─ReLU: 2-16                        [-1, 128]                 --
|    └─Linear: 2-17                      [-1, 2]                   258
==========================================================================================
Total params: 233,586
Trainable params: 233,586
Non-trainable params: 0
Total mult-adds (M): 7.45
==========================================================================================
Input size (MB): 0.00
Forward/backward pass size (MB): 0.27
Params size (MB): 0.89
Estimated Total Size (MB): 1.16
========================================================================================== 
==========================================================================================
Layer (type:depth-idx)                   Output Shape              Param #
==========================================================================================
├─Sequential: 1-1                        [-1, 16, 26, 26]          --
|    └─Conv2d: 2-1                       [-1, 16, 26, 26]          160
|    └─ReLU: 2-2                         [-1, 16, 26, 26]          --
├─Sequential: 1-2                        [-1, 16, 12, 12]          --
|    └─Conv2d: 2-3                       [-1, 16, 24, 24]          2,320
|    └─ReLU: 2-4                         [-1, 16, 24, 24]          --
|    └─MaxPool2d: 2-5                    [-1, 16, 12, 12]          --
├─Sequential: 1-3                        [-1, 64, 10, 10]          --
|    └─Conv2d: 2-6                       [-1, 64, 10, 10]          9,280
|    └─ReLU: 2-7                         [-1, 64, 10, 10]          --
├─Sequential: 1-4                        [-1, 64, 8, 8]            --
|    └─Conv2d: 2-8                       [-1, 64, 8, 8]            36,928
|    └─ReLU: 2-9                         [-1, 64, 8, 8]            --
├─Sequential: 1-5                        [-1, 64, 4, 4]            --
|    └─Conv2d: 2-10                      [-1, 64, 8, 8]            36,928
|    └─ReLU: 2-11                        [-1, 64, 8, 8]            --
|    └─MaxPool2d: 2-12                   [-1, 64, 4, 4]            --
├─Sequential: 1-6                        [-1, 2]                   --
|    └─Linear: 2-13                      [-1, 128]                 131,200
|    └─ReLU: 2-14                        [-1, 128]                 --
|    └─Linear: 2-15                      [-1, 128]                 16,512
|    └─ReLU: 2-16                        [-1, 128]                 --
|    └─Linear: 2-17                      [-1, 2]                   258
==========================================================================================
Total params: 233,586
Trainable params: 233,586
Non-trainable params: 0
Total mult-adds (M): 7.45
==========================================================================================
Input size (MB): 0.00
Forward/backward pass size (MB): 0.27
Params size (MB): 0.89
Estimated Total Size (MB): 1.16
========================================================================================== 
==========================================================================================
Layer (type:depth-idx)                   Output Shape              Param #
==========================================================================================
├─Sequential: 1-1                        [-1, 16, 26, 26]          --
|    └─Conv2d: 2-1                       [-1, 16, 26, 26]          160
|    └─ReLU: 2-2                         [-1, 16, 26, 26]          --
├─Sequential: 1-2                        [-1, 16, 12, 12]          --
|    └─Conv2d: 2-3                       [-1, 16, 24, 24]          2,320
|    └─ReLU: 2-4                         [-1, 16, 24, 24]          --
|    └─MaxPool2d: 2-5                    [-1, 16, 12, 12]          --
├─Sequential: 1-3                        [-1, 64, 10, 10]          --
|    └─Conv2d: 2-6                       [-1, 64, 10, 10]          9,280
|    └─ReLU: 2-7                         [-1, 64, 10, 10]          --
├─Sequential: 1-4                        [-1, 64, 8, 8]            --
|    └─Conv2d: 2-8                       [-1, 64, 8, 8]            36,928
|    └─ReLU: 2-9                         [-1, 64, 8, 8]            --
├─Sequential: 1-5                        [-1, 64, 4, 4]            --
|    └─Conv2d: 2-10                      [-1, 64, 8, 8]            36,928
|    └─ReLU: 2-11                        [-1, 64, 8, 8]            --
|    └─MaxPool2d: 2-12                   [-1, 64, 4, 4]            --
├─Sequential: 1-6                        [-1, 2]                   --
|    └─Linear: 2-13                      [-1, 128]                 131,200
|    └─ReLU: 2-14                        [-1, 128]                 --
|    └─Linear: 2-15                      [-1, 128]                 16,512
|    └─ReLU: 2-16                        [-1, 128]                 --
|    └─Linear: 2-17                      [-1, 2]                   258
==========================================================================================
Total params: 233,586
Trainable params: 233,586
Non-trainable params: 0
Total mult-adds (M): 7.45
==========================================================================================
Input size (MB): 0.00
Forward/backward pass size (MB): 0.27
Params size (MB): 0.89
Estimated Total Size (MB): 1.16
========================================================================================== 
==========================================================================================
Layer (type:depth-idx)                   Output Shape              Param #
==========================================================================================
├─Sequential: 1-1                        [-1, 16, 26, 26]          --
|    └─Conv2d: 2-1                       [-1, 16, 26, 26]          160
|    └─ReLU: 2-2                         [-1, 16, 26, 26]          --
├─Sequential: 1-2                        [-1, 16, 12, 12]          --
|    └─Conv2d: 2-3                       [-1, 16, 24, 24]          2,320
|    └─ReLU: 2-4                         [-1, 16, 24, 24]          --
|    └─MaxPool2d: 2-5                    [-1, 16, 12, 12]          --
├─Sequential: 1-3                        [-1, 64, 10, 10]          --
|    └─Conv2d: 2-6                       [-1, 64, 10, 10]          9,280
|    └─ReLU: 2-7                         [-1, 64, 10, 10]          --
├─Sequential: 1-4                        [-1, 64, 8, 8]            --
|    └─Conv2d: 2-8                       [-1, 64, 8, 8]            36,928
|    └─ReLU: 2-9                         [-1, 64, 8, 8]            --
├─Sequential: 1-5                        [-1, 64, 4, 4]            --
|    └─Conv2d: 2-10                      [-1, 64, 8, 8]            36,928
|    └─ReLU: 2-11                        [-1, 64, 8, 8]            --
|    └─MaxPool2d: 2-12                   [-1, 64, 4, 4]            --
├─Sequential: 1-6                        [-1, 2]                   --
|    └─Linear: 2-13                      [-1, 128]                 131,200
|    └─ReLU: 2-14                        [-1, 128]                 --
|    └─Linear: 2-15                      [-1, 128]                 16,512
|    └─ReLU: 2-16                        [-1, 128]                 --
|    └─Linear: 2-17                      [-1, 2]                   258
==========================================================================================
Total params: 233,586
Trainable params: 233,586
Non-trainable params: 0
Total mult-adds (M): 7.45
==========================================================================================
Input size (MB): 0.00
Forward/backward pass size (MB): 0.27
Params size (MB): 0.89
Estimated Total Size (MB): 1.16
========================================================================================== 
==========================================================================================
Layer (type:depth-idx)                   Output Shape              Param #
==========================================================================================
├─Sequential: 1-1                        [-1, 16, 26, 26]          --
|    └─Conv2d: 2-1                       [-1, 16, 26, 26]          160
|    └─ReLU: 2-2                         [-1, 16, 26, 26]          --
├─Sequential: 1-2                        [-1, 16, 12, 12]          --
|    └─Conv2d: 2-3                       [-1, 16, 24, 24]          2,320
|    └─ReLU: 2-4                         [-1, 16, 24, 24]          --
|    └─MaxPool2d: 2-5                    [-1, 16, 12, 12]          --
├─Sequential: 1-3                        [-1, 64, 10, 10]          --
|    └─Conv2d: 2-6                       [-1, 64, 10, 10]          9,280
|    └─ReLU: 2-7                         [-1, 64, 10, 10]          --
├─Sequential: 1-4                        [-1, 64, 8, 8]            --
|    └─Conv2d: 2-8                       [-1, 64, 8, 8]            36,928
|    └─ReLU: 2-9                         [-1, 64, 8, 8]            --
├─Sequential: 1-5                        [-1, 64, 4, 4]            --
|    └─Conv2d: 2-10                      [-1, 64, 8, 8]            36,928
|    └─ReLU: 2-11                        [-1, 64, 8, 8]            --
|    └─MaxPool2d: 2-12                   [-1, 64, 4, 4]            --
├─Sequential: 1-6                        [-1, 2]                   --
|    └─Linear: 2-13                      [-1, 128]                 131,200
|    └─ReLU: 2-14                        [-1, 128]                 --
|    └─Linear: 2-15                      [-1, 128]                 16,512
|    └─ReLU: 2-16                        [-1, 128]                 --
|    └─Linear: 2-17                      [-1, 2]                   258
==========================================================================================
Total params: 233,586
Trainable params: 233,586
Non-trainable params: 0
Total mult-adds (M): 7.45
==========================================================================================
Input size (MB): 0.00
Forward/backward pass size (MB): 0.27
Params size (MB): 0.89
Estimated Total Size (MB): 1.16
========================================================================================== 
==========================================================================================
Layer (type:depth-idx)                   Output Shape              Param #
==========================================================================================
├─Sequential: 1-1                        [-1, 16, 26, 26]          --
|    └─Conv2d: 2-1                       [-1, 16, 26, 26]          160
|    └─ReLU: 2-2                         [-1, 16, 26, 26]          --
├─Sequential: 1-2                        [-1, 16, 12, 12]          --
|    └─Conv2d: 2-3                       [-1, 16, 24, 24]          2,320
|    └─ReLU: 2-4                         [-1, 16, 24, 24]          --
|    └─MaxPool2d: 2-5                    [-1, 16, 12, 12]          --
├─Sequential: 1-3                        [-1, 64, 10, 10]          --
|    └─Conv2d: 2-6                       [-1, 64, 10, 10]          9,280
|    └─ReLU: 2-7                         [-1, 64, 10, 10]          --
├─Sequential: 1-4                        [-1, 64, 8, 8]            --
|    └─Conv2d: 2-8                       [-1, 64, 8, 8]            36,928
|    └─ReLU: 2-9                         [-1, 64, 8, 8]            --
├─Sequential: 1-5                        [-1, 64, 4, 4]            --
|    └─Conv2d: 2-10                      [-1, 64, 8, 8]            36,928
|    └─ReLU: 2-11                        [-1, 64, 8, 8]            --
|    └─MaxPool2d: 2-12                   [-1, 64, 4, 4]            --
├─Sequential: 1-6                        [-1, 2]                   --
|    └─Linear: 2-13                      [-1, 128]                 131,200
|    └─ReLU: 2-14                        [-1, 128]                 --
|    └─Linear: 2-15                      [-1, 128]                 16,512
|    └─ReLU: 2-16                        [-1, 128]                 --
|    └─Linear: 2-17                      [-1, 2]                   258
==========================================================================================
Total params: 233,586
Trainable params: 233,586
Non-trainable params: 0
Total mult-adds (M): 7.45
==========================================================================================
Input size (MB): 0.00
Forward/backward pass size (MB): 0.27
Params size (MB): 0.89
Estimated Total Size (MB): 1.16
========================================================================================== 
